logs/FMDepthRNN/checkpoints/best.pth (torch, 237372 bytes, 10 tensors)

rnn.weight_ih_l0 f4 [128, 2]
000000 1b 54 28 bb a8 ea 66 bd 01 ac 8d 3c f4 cf 8c bc
       -0.0025684896 -0.05637613 0.017293932 -0.017189004
000010 14 d9 11 be 41 63 f0 bd 38 1f 89 bd d8 85 a2 3d
       -0.14242965 -0.11737681 -0.06695408 0.07935685
000020 47 c0 b8 bc d1 d1 fc 3d ca 8c 9e 3d c8 c2 60 3d
       -0.022552622 0.12344707 0.07741697 0.054873258
000030 15 59 ab bd 98 9e d9 bd 56 1d 75 bd 39 d0 0d 3d
       -0.083666004 -0.106259525 -0.05984243 0.034622405
000040 21 98 70 3d 52 79 4f be e3 dc 0e 3e 78 8e 82 bd
       0.05873883 -0.20261124 0.13951449 -0.0637483
000050 a5 c7 c2 3d f0 72 93 bb ae a9 15 bd 2a 02 c2 3d
       0.095107354 -0.0044997856 -0.036538772 0.09473069
000060 c8 7a 72 3b 61 03 87 3c 63 b1 4e 3d 89 8d 24 3d
       0.0036999453 0.016481103 0.050462138 0.04017404
000070 93 3c 42 3d 21 74 81 bd ac 5b ae 3d 3f 0a bc 3c
       0.04742105 -0.06320978 0.08513579 0.022954104
000080 9e 52 b1 bd 11 7f da 3c 6f 3f 0b 3e 4e df 4e 3e
       -0.08658336 0.026671918 0.13598417 0.20202371
000090 e6 12 2a bd 5c c9 3f bd 55 3f 6e bc 3b 13 3e bd
       -0.04152193 -0.04682289 -0.014541467 -0.04640506
0000a0 69 90 aa 3d d5 8b b1 bd b2 bf 5d be f0 c5 01 3e
       0.08328325 -0.08669249 -0.21655157 0.12673163
0000b0 ff ba c6 3d 53 47 11 3c 32 a2 bf b8 00 ff e5 bc
       0.097036354 0.008867103 -9.137801e-05 -0.028075695
0000c0 bd 94 00 be 4a 4a 28 be 14 59 0a be 43 6f 51 3e
       -0.12556739 -0.16434589 -0.13510543 0.20452599
0000d0 ee 1e b3 3d d7 aa 23 bd 22 00 2a be db 0b b1 3c
       0.08746134 -0.039957847 -0.16601613 0.021612098
0000e0 0f 4c 4e 3b cf 9c 1e bd 74 41 dd 3d bc e7 1a 3d
       0.003147844 -0.038723763 0.108035 0.037818655
0000f0 30 18 ef bd ce 6b 2a 3c bd 8d d8 3d 08 b3 dd bd
       -0.11674535 0.010401679 0.105739094 -0.10825163
000100 34 55 0b bd ce 9b 1a 3d 0c 67 28 bd 94 b3 5c bd
       -0.034016803 0.037746243 -0.0411139 -0.053882197
000110 44 f5 a8 bc da fd 36 3e a6 af 3a 3d ce b0 13 be
       -0.020624764 0.17870274 0.045577668 -0.14422914
000120 65 4e 0c 3d e0 8c 12 bd c8 fd 9f bd 7d 85 09 3e
       0.03425445 -0.03577888 -0.07812077 0.13429828
000130 30 76 de 3b 76 de 4c bb 9f 4c 8b 3c 8a 8f 10 bc
       0.0067889914 -0.0031260527 0.01700431 -0.008823285
000140 84 07 a8 3d 86 5e 9b bd 0e d8 82 ba 45 a3 36 3b
       0.082045585 -0.07586388 -0.0009982602 0.0027868312
000150 40 17 48 bd 02 7e 61 3c db 33 70 3e 5c 1b e9 3c
       -0.048850298 0.013762953 0.23457281 0.028455429
000160 3b 9b a4 bd 34 7e 16 3e a2 31 31 be 0f 84 51 3d
       -0.0803742 0.1469658 -0.1730409 0.05115133
000170 32 93 23 3d 28 ad 9b bb a7 65 de bd 01 0c 0e bd
       0.0399353 -0.0047508664 -0.108592324 -0.034679417
000180 1e 74 29 be 28 10 4e 3e ac 09 f6 3c 36 ce fb 3d
       -0.16548201 0.2012335 0.030033909 0.12295191
000190 bf 9b f0 bd 0b a3 9d bd 00 d7 e4 bd 28 fd a6 3d
       -0.11748456 -0.076971136 -0.111738205 0.081537545
0001a0 9d 7c 46 be 53 6e 9c bd 26 5f 70 3d 27 5b c5 bc
       -0.19383474 -0.0763823 0.05868449 -0.024091316
0001b0 0b d6 c5 bb 19 bd 8c 3d 2b 3c 24 be 28 d7 55 3e
       -0.006037479 0.06872005 -0.16038577 0.20882857
0001c0 9a 82 88 3d e6 d9 f0 bb be 7e 05 3c 7a 01 52 be
       0.06665535 -0.0073501943 0.0081478935 -0.20508376
0001d0 9b c1 80 bd f0 72 8c bd 03 3b 17 be 96 ba 38 3e
       -0.06286927 -0.0685786 -0.14768605 0.18039927
0001e0 15 53 6d bd ec b1 f1 bd fe 0b a8 3d 5c b6 c4 bd
       -0.05794056 -0.11801514 0.08205412 -0.09605095
0001f0 4c 87 e6 3a 38 5f 1d bd e5 1c f3 bd 82 83 9a bd
       0.0017587929 -0.038420886 -0.118707456 -0.075446144
000200 ad bf aa 3d ed cc da 3d ef f1 3b bd 23 ae 01 bd
       0.083373405 0.10683618 -0.045885023 -0.03166021
000210 63 d9 70 be 78 2f 26 3e 9b b5 d4 3d 8a ce 6b 3d
       -0.23520426 0.16229045 0.10386201 0.057570018
000220 7c d0 38 be 3d 87 94 3d d8 9a 97 3d 1a a8 b5 3d
       -0.1804828 0.07252357 0.07402581 0.088699535
000230 b2 5e ce bc e5 c4 08 3e 93 06 eb 3c 68 be 5b bd
       -0.025191639 0.1335636 0.028689658 -0.053648382
000240 ef 49 50 bd 6c d1 a4 bd 7c 8b 7c bd c7 2d 60 3d
       -0.05085176 -0.080477566 -0.06165646 0.054731157
000250 57 8b 0c 3e cd 59 60 bc a8 b6 75 bd ec eb 75 bd
       0.13725029 -0.013693285 -0.059988648 -0.060039446
000260 c0 d2 fc bd b2 37 01 3e 87 a6 8d 3d 97 74 24 bd
       -0.12344885 0.12618902 0.06916528 -0.04015025
000270 25 eb 13 be 43 79 0a 3d 4c 16 e1 3b a7 5c 62 3c
       -0.1444517 0.03380705 0.006869113 0.013816035
000280 f8 9e 51 bb 72 25 3b bc 64 b0 44 bd 4e 47 bd bd
       -0.0031985622 -0.011422502 -0.04801978 -0.09242116
000290 9b b0 3f 3c 82 c6 35 bd b3 21 9e 3c 48 db 69 bd
       0.011699821 -0.044378765 0.019303178 -0.05709389
0002a0 aa 39 8f 3d 2a 92 2e 3b 08 1c bd 3d d0 08 8b bd
       0.069934204 0.0026637414 0.09233862 -0.0678879
0002b0 97 0a 7d 3d 6b 6d 8e bb e0 91 b7 bc 4f 8b 6a bc
       0.061777677 -0.0043465397 -0.022408426 -0.01431544
0002c0 b5 73 d9 bd 40 f7 4c bd 9b 77 b3 3d 57 d4 f3 bc
       -0.106177725 -0.050040483 0.08763047 -0.029764337
0002d0 6a 4b f7 3d 92 22 2f 3d 0d 68 7d bc ab 2f e2 3c
       0.12074931 0.04275758 -0.015466702 0.02761062
0002e0 32 bb 03 3d cb 2f a7 bd b0 ce fb bd 46 d1 03 3e
       0.032160945 -0.08163413 -0.12295282 0.128728
0002f0 a1 a0 18 3d 23 96 8b 3c 20 83 dc 3d 09 8b 06 3e
       0.037262563 0.017039364 0.107671976 0.13138975
000300 24 6d 87 3d d6 af 2f be 57 b1 f7 39 23 f0 93 3c
       0.06612614 -0.1715692 0.0004724364 0.018058842
000310 21 a4 5b 3c 1e c9 38 3e df e1 a1 ba b1 b4 e2 bd
       0.013405831 0.1804547 -0.001235064 -0.110696204
000320 38 bb 98 3d 17 ce c6 3d 6f d2 a3 bc e7 10 39 be
       0.07457584 0.09707277 -0.019997803 -0.18072854
000330 d9 04 a0 bd e4 eb 77 3c 9b 3c 99 bd 1a a4 68 3e
       -0.078134246 0.015131924 -0.07482263 0.2271885
000340 bf b6 25 bd 00 bc e5 3d 91 4b c7 bd 8a 56 89 3d
       -0.040457483 0.11217499 -0.0973121 0.06705959
000350 2f f9 98 bd 16 c5 f2 3d 1f b1 92 3d bd c6 23 3c
       -0.07469403 0.118539974 0.071626894 0.009996113
000360 39 ff 48 3d 65 ba 13 3d 8b fd 49 bc db 05 99 ba
       0.049071524 0.03606643 -0.012328516 -0.0011674719
000370 4a c3 47 3d 3e 4a fc bd db 97 0e be 7e 6c 5b 3d
       0.048770227 -0.12318848 -0.13925116 0.053570263
000380 4a bd 2d bc 1f 3b de bd 26 ed 43 3a 55 a1 87 bc
       -0.010604212 -0.1085112 0.00074739975 -0.016556421
000390 87 65 fa bd 56 79 25 3c a6 b9 16 be cc ad 96 3d
       -0.12226396 0.0100997295 -0.14719257 0.07357368
0003a0 d3 cf cb 3d fb 67 df 3d 1f 19 4a 3e e7 75 14 3d
       0.09951749 0.109085046 0.19736145 0.036245253
0003b0 1f a7 05 3e 13 81 ab bc 6e 77 2f 3e c9 ca 3b 3d
       0.13052033 -0.02093557 0.17135403 0.045847688
0003c0 42 6c 43 bd 0b 1a 56 bd 8e 54 c3 bd b2 4d 62 bc
       -0.047710665 -0.05227093 -0.09537612 -0.013812469
0003d0 a4 19 ab bd a6 b2 12 3e 2e b1 cd bd c1 1e ac bd
       -0.083545 0.14325961 -0.1004356 -0.08404303
0003e0 ca 33 50 bc a1 a6 96 3d b7 85 44 3c cd 15 00 3c
       -0.01270766 0.07356001 0.011994771 0.007817698
0003f0 92 de 78 3c ed 08 9e 3e 3f 1c e8 bd a5 75 10 3e
       0.015189784 0.30866185 -0.113335125 0.14107378

rnn.weight_hh_l0 f4 [128, 128]
000000 17 74 9d 3c db 17 8b 3d d2 46 24 be 4c 18 13 bd
       0.019220395 0.067916594 -0.16042641 -0.035911843
000010 3d 85 b1 bc ae e5 be 3d 11 ad 8f 3c 55 9a 9d bd
       -0.021669978 0.09321152 0.01753858 -0.07695452
000020 cd c8 3f bd d8 46 a0 3c ce 91 f2 3c a8 6e 52 bd
       -0.046822358 0.019565031 0.02961054 -0.05137506
000030 f0 92 a9 bd e0 9b a5 3d 8a 0a ae bd 2e 54 a6 bc
       -0.08279979 0.080863714 -0.08498104 -0.020303812
000040 67 81 bc bb 15 97 ab 3e 1f 4d 54 bd 20 0a 50 bd
       -0.0057527306 0.33513704 -0.05183136 -0.050790906
000050 ad 58 c1 bc 62 6c 9a bd 1b 4a 74 3d 7c 15 24 3d
       -0.023601854 -0.07540204 0.059640985 0.04005955
000060 e2 21 51 3e 97 fc bb 3d d5 3a 7a bd 17 70 7f bc
       0.20423082 0.09179037 -0.061091263 -0.015590689
000070 22 25 8f bd 25 cd 33 3b 6e 45 93 bd 82 f1 b7 bd
       -0.069895044 0.0027435508 -0.07190977 -0.08981611
000080 12 b4 69 3d b7 19 db 3a 0e da 8c 3a 51 23 39 bc
       0.057056494 0.0016716038 0.0010746138 -0.011299924
000090 d2 cc 9c bd 7d 77 0f 3c 94 76 b6 3c 96 42 93 3d
       -0.07656254 0.008756516 0.02227334 0.07190435
0000a0 3e f5 15 bd ad 7c ac 3d 22 67 41 bd 9a d0 0d 3c
       -0.036610834 0.084222175 -0.047217496 0.0086556915
0000b0 a7 3a ab 3d dc 81 c4 3c 0a ae f8 bc 4e f2 5c 3d
       0.083607964 0.023987703 -0.030356426 0.053942017
0000c0 07 eb 34 be 26 39 84 bc 76 51 47 bd ef ea 8e bd
       -0.17667781 -0.016140532 -0.04866167 -0.06978404
0000d0 82 6d 25 3e da c7 93 bd 49 97 54 3d e6 bd f6 bd
       0.16155055 -0.07215853 0.05190209 -0.12047939
0000e0 02 ed a0 bd 24 00 c9 3d 86 bd 5d 3d 74 d4 bf 3d
       -0.07857706 0.0981448 0.05413582 0.09366694
0000f0 fd a0 30 3e 81 01 97 3d 8a 71 b7 3d c9 22 61 bd
       0.17248912 0.07373334 0.08957203 -0.054964814
000100 3f 8f 6a 3d 71 66 cc bc 62 fe 11 3d d0 7b 5e bd
       0.057265516 -0.024951192 0.03564299 -0.054317296
000110 f8 91 83 bd 95 2a 6b bd 67 77 07 bc a5 98 c1 3a
       -0.06424326 -0.057413656 -0.008268214 0.0014770223
000120 f9 20 11 bc 5b ad 7f bd d6 8d 41 3d c4 51 50 3d
       -0.008857959 -0.062421184 0.047254406 0.050859228
000130 b5 5f 82 bd 6a 6f f4 bd 03 24 1e bd 42 23 1d 3d
       -0.06365911 -0.11935313 -0.038608562 0.038363703
000140 76 6b 85 bd 81 4f cc 3b 7b b3 a1 3c 68 67 14 be
       -0.06514637 0.0062350635 0.019738903 -0.14492571
000150 c2 29 b3 3d c8 48 64 3d 1b 8e 75 3d 61 99 00 bd
       0.08748199 0.055733472 0.059949975 -0.031396274
000160 57 cc ba bd da 39 9c 3c 70 a3 6f 3d 71 1b 31 3d
       -0.09121006 0.019070555 0.058505476 0.04323906
000170 f0 3f 96 bd 8d 7d a4 3d f5 99 5f bd d1 4b f3 bb
       -0.07336414 0.080317594 -0.054590184 -0.0074248095
000180 25 eb 04 3e 66 b1 86 3d 20 7f 95 bd 90 4d 4e bd
       0.12980326 0.06576805 -0.07299638 -0.050366938
000190 c4 2d 37 3d a8 f7 38 3c 35 81 6a bc 11 a6 a9 3d
       0.04472138 0.011289515 -0.014313032 0.08283628
0001a0 ed 53 e3 3c fa b2 af 3c 98 53 e9 bd cf 35 c4 3a
       0.02774998 0.021447647 -0.11392897 0.001496965
0001b0 6f 5d dd 3c 56 7e 98 bc 39 e5 50 bb 98 52 8e 3d
       0.027022092 -0.01861493 -0.0031874909 0.06949347
0001c0 e7 fb 55 3d 19 06 7d bd 98 80 74 3d 9d a7 c5 3c
       0.052242186 -0.061773393 0.05969295 0.024127776
0001d0 05 fc 83 3d 05 78 ec bc 4f b2 a7 3d 90 10 1a bc
       0.06444553 -0.028865824 0.081883065 -0.009403363
0001e0 53 e1 41 bd 31 9d af 3d 1d 9e b3 3d af a8 86 3d
       -0.047334027 0.08574904 0.08770392 0.065751426
0001f0 81 a7 cb bc cf 04 1c bd fe d0 2f 3d 1e 1b 79 3d
       -0.024860146 -0.038090523 0.04292392 0.060816877
000200 44 b7 d4 bc b2 4e 91 3b 2e 9a 4d ba ed f0 c1 3b
       -0.025966294 0.00443443 -0.0007843104 0.005918613
000210 08 53 b2 3c 6b 4c e4 3b 83 da d8 bb b9 f6 d7 bd
       0.021768108 0.0069671175 -0.0066178455 -0.105451055
000220 05 17 a2 bd fe 40 6c bd 54 12 02 3d bd 4f 4c bd
       -0.07914547 -0.05767917 0.03175576 -0.04988073
000230 14 7b 42 bc e2 3b 0d bd fb 7e 10 bd ac c6 49 3d
       -0.011870164 -0.034480937 -0.035277348 0.049261734
000240 8d d1 2c bd 53 17 28 3d 57 52 4f 3d d4 4d b0 bd
       -0.04219203 0.04103787 0.050615635 -0.086085945
000250 cc 3b fd 39 ef c6 68 3d 4f 2c ad bd 30 4d 6b 3c
       0.00048300473 0.056830343 -0.08455717 0.014361665
000260 a1 45 02 3b fb e1 de 3a c8 7a bd bc 4f a5 b6 bd
       0.0019877928 0.0017004603 -0.023129836 -0.08918249
000270 2f 71 dd bd 95 6a 0c 3d 13 e2 9b bd 96 5b fc bd
       -0.10812604 0.034281332 -0.076114796 -0.12322156
000280 79 eb fd bd d6 f2 e4 bd 95 44 e6 bc 40 3c 96 bc
       -0.123984285 -0.1117913 -0.028108874 -0.018339276
000290 8a 2a 52 bd a4 a1 8a bd b1 62 62 3c 41 e1 03 3d
       -0.0513101 -0.06769112 0.013817475 0.03219724
0002a0 6e db a2 bb a6 e4 42 bd bc 48 26 3d 16 1a a9 3d
       -0.0049700057 -0.047581337 0.04059671 0.082569286
0002b0 0c 8a 95 bd c6 a7 28 3d 78 4b 94 bd 02 97 c2 bd
       -0.07301721 0.041175626 -0.07240957 -0.09501459
0002c0 5c c4 9a 3c e9 ca 82 bc 65 c8 41 3d 37 e0 2b bd
       0.01889246 -0.015965896 0.04731025 -0.041961875
0002d0 6e 84 74 3d 9e 5d f1 bc c6 31 da bd a9 ba 6d bd
       0.059696607 -0.029463585 -0.10654025 -0.05803934
0002e0 02 f4 3b 3d 5e 17 0e bd ef bf e8 bd 59 51 ae bd
       0.045887 -0.034690253 -0.113647334 -0.085116096
0002f0 a9 35 21 3c d3 5e 2e 3d 68 18 f1 bc ef 24 cd bd
       0.009839454 0.0425709 -0.029430583 -0.1001681
000300 6c ee a8 bd f9 bc 37 3d 7c d9 82 bd d4 c9 57 bd
       -0.082486 0.044857953 -0.06389138 -0.052682713
000310 cc 53 40 3d 5a c5 d2 3a c1 8b 2d 3c 06 83 a2 3d
       0.046954915 0.0016080544 0.010592402 0.07935147
000320 98 51 ee bc 09 6c 86 bb aa 69 c7 bd 02 31 68 3d
       -0.029091641 -0.0041022343 -0.09736951 0.056687362
000330 1d de e8 bd 8c 10 ac 3d a5 bc a5 3d 96 16 b9 bc
       -0.1137049 0.084015936 0.08092622 -0.022593778
000340 fb 81 9c bd 86 b1 3a bb f5 34 15 bd 18 f8 dd 3c
       -0.07641979 -0.002848716 -0.036427457 0.02709584
000350 e4 b9 4c 3d 71 0c e1 3b dc 89 e8 3c 70 51 e2 bd
       0.049981967 0.006867938 0.028386049 -0.11050689
000360 5f 42 98 bd ee ef 7e bc 2d 9c 6f bd d2 34 29 3d
       -0.07434534 -0.015560133 -0.05849855 0.04131014
000370 93 ef af 3d 1d 09 90 bc ef 02 5a bd cc 93 43 bd
       0.08590617 -0.01758247 -0.053225454 -0.047748372
000380 d6 12 5f 3d 95 86 09 3c ed f4 09 3d 04 8b ff bd
       0.054461323 0.008393903 0.033680845 -0.12477687
000390 48 b1 0e bd 4d 75 9b bd ed 8c f8 3c 5e c7 7d 3c
       -0.034837037 -0.07590733 0.030340636 0.015489427
0003a0 81 9a 2f bd 8b 78 cd bd a5 61 1a bd 2f f4 30 3d
       -0.042871956 -0.10032757 -0.037690777 0.04320162
0003b0 c6 24 1b bb 87 e9 6f bb a1 40 d5 bd d3 94 10 3d
       -0.0023673042 -0.00366077 -0.104127176 0.03529818
0003c0 11 c4 71 3d a0 72 91 bd 2e 5f bf bd e3 36 10 bd
       0.059024874 -0.07101941 -0.09344326 -0.035208594
0003d0 cf 98 c4 bd 32 1e 94 bd f6 8b 2e bc 53 7d 2c bd
       -0.095994584 -0.07232322 -0.0106534865 -0.042111706
0003e0 50 28 52 bc ed 43 74 bb 90 7c 4b 3d 2e 42 7a 3c
       -0.012826994 -0.0037271932 0.04967934 0.0152745675
0003f0 d2 2a aa bd cd e1 91 bd 8a da 48 3d 45 53 f7 bd
       -0.083089486 -0.07123146 0.04903654 -0.12076429

rnn.bias_ih_l0 f4 [128]
000000 a3 98 46 3d 71 61 78 bd a3 b1 0e bc 22 9e ae 3d
       0.04848541 -0.060639802 -0.008709344 0.08526255
000010 f5 a6 c9 3d a2 20 18 bd bd 79 71 3b 29 e3 89 bc
       0.09846298 -0.037140496 0.0036846243 -0.016831951
000020 17 da 0c bc 7e 80 94 3c 6b d6 b7 3d ae ae 97 3c
       -0.008596919 0.018127676 0.08976444 0.018515911
000030 53 15 2a bd 7e 94 e7 bc 4b 8c 34 3b ce fb 99 3d
       -0.041524243 -0.028269049 0.0027549441 0.07518731
000040 4e cc b8 3c 80 d4 39 bd 11 dd 52 3d c9 cf 9b bd
       0.022558358 -0.04536867 0.051480357 -0.07607991
000050 4a 9f a8 3d 28 b3 45 38 9f a6 3d 3d 71 7c 96 bd
       0.08233507 4.7135312e-05 0.04630148 -0.07347954
000060 11 14 5c 3d 72 49 24 3d 79 53 c6 3d 83 70 7f 3d
       0.053730074 0.040109105 0.0968389 0.06236316
000070 95 47 38 3d 98 24 81 3d 11 d0 79 3d ac f2 7a bd
       0.04499014 0.06305808 0.060989443 -0.061266586
000080 b2 54 56 bc f3 6c 1a 3d 9f 2a b9 3c cc 51 05 bd
       -0.013081716 0.03770156 0.022603331 -0.03254871
000090 7c 94 ec 3c b5 be 2c bc b8 12 7e bd 2d a3 bf bd
       0.028879397 -0.010543515 -0.06202957 -0.09357295
0000a0 c0 77 bb 3d f3 86 af bd 7e 3d b3 3d 69 44 b9 3d
       0.091537 -0.085706614 0.08751963 0.09046251
0000b0 41 0e 43 3d 22 74 9e 3d a6 62 a5 bd 66 40 a4 3d
       0.047621015 0.07736994 -0.08075456 0.080200955
0000c0 e1 94 6f bc 63 4c dd 3c d7 97 fc 3c 7b 5f b5 3b
       -0.014622898 0.027013963 0.030834122 0.005535064
0000d0 99 da 3d bd b5 12 b0 bd 71 f8 94 3d f9 b6 9f 3d
       -0.04635105 -0.08597318 0.07273949 0.07798571
0000e0 a7 de 90 bd 8c ec 3b 3d 95 db a8 3d 5b 81 87 3d
       -0.070737176 0.045879886 0.08245007 0.066164695
0000f0 80 23 77 3c ac 69 7d bd 4c 0b c2 3d 2c 62 6e 3d
       0.015084147 -0.061868355 0.09474811 0.058199093
000100 cd b8 f6 3d 19 57 3d bd 89 6a ce 3d 73 c9 0f 3c
       0.12046967 -0.04622564 0.10078914 0.008776057
000110 ff 99 2f bd 6a 4e 29 3d 2c 04 b5 3c 37 7e 86 bd
       -0.04287147 0.041334547 0.022096716 -0.06567042
000120 a9 fa 32 bd 84 b0 eb 3c a4 04 a3 3d d2 ae 13 3c
       -0.04369608 0.028770693 0.079598695 0.009013848
000130 2f 5f 02 bd bb c4 08 bd 9c 71 ed 3d f3 bb bf 3d
       -0.031829055 -0.03339074 0.11593935 0.0936202
000140 0c 9a 82 3c cb 76 18 3d 83 5e 8f bd ca 85 a9 bd
       0.015942596 0.037222665 -0.070004486 -0.08277471
000150 67 5a 9c bd e1 49 87 3b 61 eb 89 bd 7b cf de 3d
       -0.076344304 0.00412868 -0.06734348 0.108794175
000160 36 29 89 3d 2a 11 e8 bc 3e a7 17 3d 48 04 87 bd
       0.066973135 -0.028328497 0.03702473 -0.065926135
000170 64 51 1c bd 12 43 77 3d 8a 81 aa bc f6 39 9f 3d
       -0.038163558 0.060366698 -0.020813722 0.07774727
000180 6d 0f ee bc 61 21 ca bd 8f 6c c4 bd 52 ed 69 3c
       -0.02906009 -0.09869648 -0.095910184 0.014277773
000190 bc 90 6a bb ed bb 44 3c 3a 27 61 ba 77 e7 41 bd
       -0.0035791835 0.012007696 -0.0008588914 -0.047339883
0001a0 0e d6 96 bd 0e 71 88 3d 1a f7 ae bd 5f cf 05 3d
       -0.073650464 0.066621885 -0.08543225 0.032668468
0001b0 66 fe 72 bd e1 1d 24 bb 90 c5 34 3d c7 ef a0 bd
       -0.059324645 -0.0025042223 0.044133723 -0.07858234
0001c0 0d fc c6 bc 14 a7 9b bd c0 6f 2b 3d 8e 24 ba 3d
       -0.024290109 -0.07600227 0.04185462 0.090890035
0001d0 23 29 88 bd 65 a4 8f 3c c6 ff 80 3c b5 01 da bd
       -0.06648471 0.017534444 0.015746962 -0.10644857
0001e0 10 df 44 3d fd 99 21 3d cf af 32 3d 08 d3 1d 3d
       0.04806429 0.039453495 0.043624695 0.038531333
0001f0 df e1 9b bd ed ab 25 bd c4 cd c6 bc b9 94 ab 3d
       -0.07611441 -0.040447164 -0.024268039 0.08377976

rnn.bias_hh_l0 f4 [128]
000000 64 dd 2b 3d 7a 22 8c bd 3d 58 b2 3d 8f 27 24 3c
       0.04195918 -0.068425134 0.08708236 0.010019197
000010 29 85 3b bd d4 d1 8a bd 4d 4b c4 bc 11 31 a8 3d
       -0.04578129 -0.06778303 -0.023961687 0.08212484
000020 99 ec 10 bd e1 1d 31 3d b3 bb 4c bc da e5 4a 3d
       -0.035381887 0.043241385 -0.012495923 0.04953561
000030 63 8b 48 bd d8 1b d1 bd 8f e9 1c 3c a5 9d 5c bd
       -0.048961055 -0.10210389 0.009577169 -0.05386128
000040 be 2a dc 3c ec 6f 94 3c d5 c9 0a 3d 2f 31 c3 bd
       0.02687585 0.018119775 0.03388389 -0.095308654
000050 46 dd 72 bc 3b 8b ba bd d4 0c c5 bc ab 70 73 bd
       -0.0148232635 -0.09108587 -0.024053968 -0.05943362
000060 82 fa 2e bd ba dc c5 bb 54 e8 53 3d f3 5b 9b 3b
       -0.04271937 -0.0060382755 0.051735237 0.004741186
000070 2e d6 61 3d f6 c9 1c 3c 8b 33 05 3d c7 29 c8 3d
       0.0551359 0.009569636 0.03251986 0.097735934
000080 f4 30 70 3d e1 d4 4d bd 8b 27 f4 3b 7b f5 a9 3d
       0.058640435 -0.050251845 0.007451003 0.08298775
000090 58 2d c1 bd 92 1e b5 bb 58 8e 83 3b 8d e0 c9 bd
       -0.09432477 -0.005527326 0.0040147714 -0.09857283
0000a0 78 bd 0f bd 4a b0 83 bd de bc 1b 3d 2c 03 14 bd
       -0.0350928 -0.06430109 0.038021915 -0.036135837
0000b0 cb 68 d6 3c ee b9 5f 3d 53 44 a0 bd 61 a4 63 3d
       0.026173016 0.054620676 -0.07825532 0.055576686
0000c0 b2 9f 28 3d 45 f8 e5 3b c1 76 bb 3d aa 03 92 3d
       0.041167922 0.0070181214 0.0915351 0.07129605
0000d0 a8 b1 cf 3d 9f 56 2a 3c 13 2e 9a ba 6f 8d a1 bd
       0.10141307 0.010396629 -0.0011762999 -0.078883044
0000e0 11 3e 85 3d 27 14 40 3d 01 da ac 3d 67 9c d9 3d
       0.06505979 0.04689422 0.084400184 0.106255345
0000f0 3c 0b 74 3d 4f 80 ac 3d 2e 70 96 3d e4 87 23 bb
       0.059581026 0.084229104 0.07345615 -0.0024952823
000100 2e 67 8f 3d 8d d0 0f bd d8 f0 c9 bc 59 26 46 3d
       0.07002102 -0.035111 -0.024650976 0.048376415
000110 ac 15 91 3d 92 72 e3 bc a4 35 64 bc e7 4f 47 bc
       0.07084212 -0.027764592 -0.013928805 -0.012165046
000120 44 d2 ae bd e7 da 9f 3c 3f bb 25 3c e6 8b 56 3d
       -0.08536199 0.01951356 0.010115444 0.05237951
000130 cd ab 7a 3d e0 7b a5 bd c1 a9 f1 bc f3 aa 8e 3d
       0.061199 -0.08080268 -0.02949989 0.069662
000140 21 dd d7 bd b2 9b c7 bc ca 83 3e bd 38 07 43 bd
       -0.10540224 -0.024366233 -0.046512403 -0.047614306
000150 c4 1d 81 bd c5 d3 1c 3d e9 b2 ae bd 9a b2 cc 3d
       -0.063045055 0.038287897 -0.08530218 0.09995003
000160 b3 4f be 3d 82 6d 22 3d 60 00 50 3d df c0 18 bd
       0.09292545 0.039655216 0.050781608 -0.03729331
000170 67 25 85 3d 2d 7b 42 bd d4 db a4 bd cf cf b7 3d
       0.065012746 -0.04748075 -0.080497414 0.08975183
000180 b0 5f ee 3d ee ff 4d bd 59 c3 3a bd 28 75 34 3c
       0.11639345 -0.0502929 -0.045596454 0.01101426
000190 2f 86 8e 3c 99 6f 6d bd 57 c9 78 3c 5e 0b b0 bd
       0.017397968 -0.057967756 0.015184722 -0.08595918
0001a0 d9 0f d3 bd ac 8a 86 3d 1b 86 1f 3d 49 80 4e 3d
       -0.10305757 0.06569418 0.038946252 0.05041531
0001b0 f9 c4 6b bd f9 7e a1 bd 6e d9 9e bc 7e 3f 49 3d
       -0.057560895 -0.07885546 -0.019390788 0.049132816
0001c0 e2 e5 51 bd 1a 6f 83 bd 7e cd b0 3d 2b 2e 90 3d
       -0.051244624 -0.06417675 0.086329445 0.07040056
0001d0 72 b6 1d 3d 4e 78 01 3d b2 ef 8b 3d c1 7a 68 3c
       0.03850407 0.031608872 0.06832828 0.014189423
0001e0 29 64 80 3d d5 22 9b 3d d9 fd f8 3c 58 70 b7 3d
       0.06269104 0.07575003 0.030394481 0.08956975
0001f0 24 ec 57 bc ca 0d 52 bd 64 50 ae 3c e4 19 34 3d
       -0.013178859 -0.05128268 0.021278568 0.043970004

rnn.weight_ih_l1 f4 [128, 128]
000000 82 da dc 3d 36 28 a1 bd 8e 50 8a bc 23 87 57 bd
       0.107838646 -0.07868998 -0.016884115 -0.05261911
000010 8a 7c db 3c 75 0d b8 3d bc 6d 15 bd 8d 8a 83 3d
       0.026792783 0.08986942 -0.036481604 0.06422911
000020 12 8f 9d bd 53 75 04 3c fa 34 42 bc 23 99 8e 3d
       -0.07693304 0.008084613 -0.011853451 0.06962802
000030 9c 2d 7e 3d 35 4a 08 bd b0 a3 61 bc ec a6 5c bb
       0.062055215 -0.033273894 -0.013771936 -0.003366883
000040 2a 8c 87 bc 94 0f 6e be 82 56 92 3d 11 fd e1 bc
       -0.016546328 -0.2324813 0.07145406 -0.027586492
000050 05 44 04 3c 57 6f 48 bc 86 01 d9 3c c1 b9 5a bd
       0.008072858 -0.012233577 0.026489984 -0.053399805
000060 0f 10 a3 3c df 81 aa 3a 89 6f a1 3d 5b 12 f0 bc
       0.019905118 0.0013008675 0.07882602 -0.029305628
000070 59 6f 75 3d fa bd a2 ba 9a 4f be bc 8e 69 eb 3d
       0.059920643 -0.0012416237 -0.023231316 0.11494742
000080 a4 92 06 3d 4c c7 2d 3d 1f 54 5a bd 8f 24 21 bd
       0.03285469 0.042426392 -0.05330288 -0.039341506
000090 f9 a5 84 bd d8 bc ce bb b7 80 99 3d ba ba 91 3d
       -0.06476969 -0.006309133 0.074952535 0.071156934
0000a0 c7 df 56 3d 36 35 4e 3c 22 50 c2 bd 28 53 7f 3c
       0.052459504 0.012585929 -0.0948794 0.015583791
0000b0 1f de 5a 3d 9b 00 fe bd d3 1e 57 3d a4 6a 70 38
       0.053434487 -0.12402459 0.05251963 5.7319776e-05
0000c0 e6 c4 a3 be d5 21 3a bc 5f 9a 99 bd 21 26 80 bd
       -0.3198616 -0.011360605 -0.07500147 -0.062572725
0000d0 c3 54 18 bd ac 4c 34 bd 3f fc 8e bd dc 7d 53 3c
       -0.03719021 -0.044018432 -0.06981706 0.012908425
0000e0 17 35 80 bd 15 44 a8 3e 54 f2 13 3d f3 e3 34 bb
       -0.06260126 0.32864442 0.036119774 -0.0027601689
0000f0 7e 0c cf 3d ca ff 06 3d 7f f3 a3 3d f1 b2 53 3d
       0.101098046 0.032958783 0.080054276 0.051684324
000100 1a b8 24 3c af 68 2b bd e9 51 fa bc c5 92 99 3d
       0.010053659 -0.04184788 -0.030556636 0.07498697
000110 07 0e 92 bd 5e 2b a3 3d d1 87 76 bd 90 6c 05 3d
       -0.07131582 0.07967256 -0.06018812 0.032574236
000120 86 df e3 bd d3 53 8b 3d 44 b0 c3 3d e6 c9 aa bd
       -0.11126618 0.068030976 0.095551044 -0.0833929
000130 16 e4 44 bc af a7 be bd 8b 0d 2a 3d b0 4d 59 3d
       -0.012017271 -0.09309327 0.04151682 0.053052604
000140 bd 27 03 bd b5 a5 76 bd 57 f5 d2 3c aa 50 da 3d
       -0.03202032 -0.060216624 0.025751753 0.10659917
000150 ea c1 36 bd dc 7b 4a 3d 2b ea a1 3d 66 f9 b1 bd
       -0.044618525 0.049434528 0.07905992 -0.08690147
000160 27 1a c3 3d c9 81 ad 3d 7e c0 dc 3d 52 ef dd 3b
       0.095264725 0.0847202 0.107789025 0.006772914
000170 71 3e aa bc b6 b8 91 bc a4 bc 66 3d e4 95 a5 bd
       -0.020781728 -0.017788272 0.056332245 -0.0808523
000180 20 f3 88 be 17 89 98 bd dd 7f e3 3d d2 69 7d bd
       -0.2674799 -0.07448023 0.11108372 -0.061868496
000190 30 84 7a 3d 93 e5 98 3c c5 09 b8 bd 02 4f 3b bd
       0.06116122 0.018664157 -0.089862384 -0.045729645
0001a0 ab df 67 bb 3f b3 ba 3d 77 d3 a2 bd 7a c4 5c 3c
       -0.003538112 0.0911622 -0.0795049 0.013474578
0001b0 2e a4 51 bc d0 25 a1 3d e9 04 25 3e ca 26 6e 3d
       -0.012795491 0.0786854 0.16115154 0.05814246
0001c0 07 28 0e 3e eb f0 04 bd b7 7a 10 bd 10 b6 8f 3d
       0.13882457 -0.03245632 -0.03527328 0.070171475
0001d0 65 d4 96 3d 22 d9 14 be dc d3 82 3b fd bf 5b 3b
       0.0736473 -0.14535955 0.0039925408 0.0033531182
0001e0 d1 45 8d bc 8e 08 d9 bc d0 8c d4 bd d7 98 84 bd
       -0.017245205 -0.026493337 -0.1037842 -0.064744644
0001f0 dd 44 e6 bc a3 c6 b3 3d a8 88 57 3e 35 7e 9f bd
       -0.028109008 0.08778121 0.21048224 -0.07787744
000200 6e 2c 91 bd 84 ff 27 3d fa 35 a1 bc 23 5c 9f bd
       -0.070885524 0.041015163 -0.019679058 -0.077812456
000210 0c 4a 84 bd b9 a0 b2 bd 39 e7 ac 3d 08 1a 96 3d
       -0.06459436 -0.08722062 0.0844254 0.07329184
000220 82 00 8f bd 5f 25 ad bd a7 3d 97 bd 4a af 8f 3d
       -0.06982519 -0.084543936 -0.07384806 0.070158556
000230 60 94 5e 3d 0b 28 17 bd 88 99 f5 3b d4 b8 e6 bc
       0.05434072 -0.036903422 0.007495109 -0.028164305
000240 9e bf cc bc 17 b9 62 bb 87 bc 79 bb 17 12 73 3d
       -0.024993714 -0.0034595185 -0.0038106756 0.059343424
000250 4a f5 bc bc c6 af 8d 3d 63 9c a5 3d 89 74 f1 bc
       -0.023066182 0.06918292 0.08086469 -0.029474514
000260 41 2e af 3d 6b 5f ae 3c 2d 2a e2 3c b3 93 49 3d
       0.08553744 0.021285733 0.027608002 0.049213123
000270 90 50 92 3d 11 78 bb bd 01 ac d0 bc aa 36 58 3d
       0.07144272 -0.0915376 -0.025472643 0.052786507
000280 33 1b b5 bc 4e 7e 8e bc fd aa e6 3c 99 2a 93 3d
       -0.022107696 -0.017394211 0.028157705 0.07185859
000290 55 76 b0 3c be 35 53 bd 62 b6 f1 3b 4e 73 ac bd
       0.0215408 -0.051564924 0.007376478 -0.0842043
0002a0 45 6e 97 bd 2e 79 0f 3d e6 87 2a bb 32 0e 9a 3c
       -0.07394079 0.035027675 -0.0026020943 0.018805597
0002b0 e4 72 73 3d a2 80 90 bd ec d3 bb 3c 54 28 21 3d
       0.05943574 -0.07055785 0.0229282 0.0393451
0002c0 e1 1d 9f 3c 6c fa 58 3d f0 e8 90 bd 4e 7c a1 3c
       0.019423427 0.052973196 -0.07075679 0.019712593
0002d0 e4 66 ab bc 5c 8e 5b 3d 7a 93 61 bd 51 e4 88 3b
       -0.020923086 0.05360256 -0.055072285 0.004177608
0002e0 fa b5 af 3d 8b bd cb bc 8c 1d 10 bd fc 8b 4e 3d
       0.08579631 -0.024870655 -0.035184428 0.05042647
0002f0 16 50 77 bd fc b8 38 3d 42 0b 57 3d 13 cd 0b bd
       -0.06037911 0.04509829 0.05250097 -0.03413112
000300 50 90 c9 bc 9a 65 ca 3b a9 16 3d 3d 7e 0e 3d bd
       -0.024604946 0.0061766626 0.04616419 -0.0461564
000310 c8 32 1c 3d 59 c9 20 bd 7a 01 8e bd e0 26 3a 3d
       0.038134366 -0.03925452 -0.069338754 0.04544723
000320 70 c3 5f bd 8d 70 51 3d a2 54 85 3d 95 07 70 3d
       -0.054629743 0.051132727 0.06510283 0.05860098
000330 e7 d8 51 bc 9f bb a9 3c 0a 40 67 3c 74 8d 99 bb
       -0.012808061 0.020719348 0.014114389 -0.004686052
000340 6f f8 af bd 92 4e 46 bd ea 6c 40 bd 75 fd f6 3b
       -0.08592307 -0.048414774 -0.04697887 0.0075375387
000350 cb 0e e1 3b 54 49 02 3c e1 3f 90 3c e1 28 f3 3c
       0.0068682185 0.007952053 0.017608585 0.029682579
000360 67 4b c0 3c f3 32 02 bd f8 4e 89 3d 47 83 c6 bc
       0.023473455 -0.03178687 0.06704515 -0.02423252
000370 10 c5 61 3d 45 ab 06 3d f8 86 9b 3d 96 bb 11 bd
       0.055119574 0.03287818 0.075941026 -0.035579287
000380 a1 2b 86 bd 9b 54 ae bd 9b 0c e3 3a df 83 6b 3c
       -0.0655129 -0.08512231 0.0017322482 0.014374702
000390 59 4f b9 bd a0 8b 3d 3d 9d 16 08 3d fb e2 10 bd
       -0.090483375 0.046275735 0.03322469 -0.035372715
0003a0 59 bb 9c bd b3 a2 ba bd 24 6b 6c 3d 4c df 56 bd
       -0.07652921 -0.09113064 0.057719365 -0.052459046
0003b0 66 ef 2f 3d ef df 56 bd 74 32 9f ba 35 d6 65 bc
       0.042952918 -0.052459653 -0.0012145774 -0.014028122
0003c0 90 bf 57 b9 98 23 98 3c a0 74 a3 bc d9 57 56 3d
       -0.0002057536 0.01857166 -0.019953072 0.05232987
0003d0 42 4e 91 3d 0d 0f ef bc c3 bb be bd af 1a 21 3d
       0.070950046 -0.029181981 -0.093131565 0.039332088
0003e0 74 5e ef bc fd d2 8c bd fd 83 c5 bd f8 9b 94 3d
       -0.029219843 -0.0687618 -0.096443154 0.07256311
0003f0 15 92 a0 bd d8 65 e8 bc bf 94 c5 bc 0d 19 24 3c
       -0.07840363 -0.028368875 -0.02411878 0.010015738

rnn.weight_hh_l1 f4 [128, 128]
000000 a1 4d 04 3d c9 0b 3f bc e8 ff 17 3d a4 d2 50 bd
       0.032300595 -0.011660525 0.037109286 -0.050982133
000010 c9 ea a2 3d b8 bc 33 bd d2 9b af 3d 34 da 74 3c
       0.07954938 -0.043881148 0.08574642 0.014944602
000020 0f 0b f8 bc 68 71 8c bb 06 33 9a 3d 4d cc c9 3d
       -0.03027871 -0.00428598 0.07529263 0.098534204
000030 5e 94 03 bd 55 33 b2 3c 34 ff 33 3d 62 58 36 bd
       -0.032123916 0.021752993 0.043944553 -0.044517882
000040 d3 fe 95 3d 69 7e 65 3b f9 ae aa 3d 7c 1b 0e 3d
       0.073239945 0.0035017973 0.08334155 0.03469418
000050 44 3d 9c bc a0 e9 3d 3d 62 ae 75 bd 32 00 31 3e
       -0.019072182 0.04636538 -0.059980758 0.17285231
000060 a7 14 b6 3b c0 b1 2f bb b8 a1 e3 bc f0 1d f3 bb
       0.005556661 -0.0026808828 -0.027787074 -0.0074193403
000070 7c cd 92 3d b7 e2 5d 3d 85 08 da bb 8f 32 29 3d
       0.07168099 0.05417129 -0.0066538476 0.041307982
000080 2d a5 d8 3c 0c e5 f3 bc 9b 0e 6e 3d 80 ee 91 3d
       0.02644595 -0.029772304 0.058119398 0.071255684
000090 1e 30 35 bd 23 a0 0f 3d 8d ad 7d 3c 20 bb ae bc
       -0.04423534 0.035064828 0.015483272 -0.021329463
0000a0 d9 d3 09 3d d1 b8 38 3d e0 d8 9f 3d 7c 23 be bc
       0.0336493 0.04509813 0.078050375 -0.02321028
0000b0 98 49 13 bd c7 81 0f bd 60 97 1e 3d e9 57 c0 3c
       -0.035958856 -0.035035875 0.03871858 0.023479419
0000c0 7f 40 19 3d 91 a0 70 bc 6f 6e 87 3b ba f9 76 3d
       0.037415024 -0.0146867195 0.0041330378 0.06029675
0000d0 44 a6 65 3d 2a 77 49 bd fb 30 0f bd c6 9e 6b 3c
       0.056066766 -0.04918591 -0.03495882 0.014381116
0000e0 0c 23 59 bd 64 49 90 bd 24 9c 17 3d e9 88 eb bc
       -0.05301194 -0.07045248 0.03701414 -0.028751807
0000f0 96 f4 0d 3c ab 37 d1 3c 84 6d 6f 3c d1 a6 b5 bd
       0.008664271 0.02553924 0.014613513 -0.08869708
000100 3d 0a 62 bd fc 00 84 3d 8f 6e ae 3d 2e a4 05 3e
       -0.055185545 0.064455 0.08517181 0.13050911
000110 a9 38 a2 3c 0a f6 2d bd 2d fe 4f 3d 78 a6 8d 3c
       0.019802408 -0.04247097 0.05077951 0.017291293
000120 1b c0 32 ba 53 c9 f0 bd d0 a5 56 bd f9 fd 31 3d
       -0.0006818787 -0.117571495 -0.052404225 0.043455098
000130 c5 3d 0c bd f1 38 41 bd 60 7d 4a bd 26 a4 dd 3c
       -0.034238596 -0.047173444 -0.049435973 0.027055811
000140 e7 c0 26 3d 1f 87 7a bd 28 18 2c bd 05 be 49 bd
       0.04071131 -0.061164018 -0.042015225 -0.049253482
000150 80 11 9a 3d 2d 6b 60 bd da c2 0a 3d 45 ff 86 3d
       0.07522869 -0.05478971 0.03387723 0.065916575
000160 91 b8 31 be 70 05 4f 3d 9d 30 ff 3c 67 b6 0f 3d
       -0.17355563 0.050542295 0.03115111 0.03508606
000170 e4 f0 24 3d b0 6e 2a 3d b6 b3 92 bd 5e b7 9b bd
       0.040268794 0.041609466 -0.071631834 -0.07603334
000180 15 57 1a 3d 4f 2f b0 3d 19 22 b4 3d c4 f8 5b 3d
       0.037680704 0.086027734 0.08795566 0.05370404
000190 04 2c 47 bd 36 9d 9c bc 37 aa ae 3d 26 ea b8 3d
       -0.04862596 -0.019117933 0.0852856 0.09029035
0001a0 52 81 b3 bc 6b aa 40 3b 6d 0e a5 3d 5b 30 97 3d
       -0.02191225 0.0029398452 0.08059392 0.0738227
0001b0 69 1a 17 3d 70 07 26 3d 66 dd 6b bd a6 48 97 bd
       0.03689042 0.040534437 -0.05758419 -0.073869035
0001c0 18 70 85 bd 35 5d 43 3d 98 a0 11 3d a9 98 ac 3c
       -0.06515521 0.04769631 0.035553545 0.021068888
0001d0 b1 e1 e7 3d b0 0f 87 bd 7e f5 29 bb ec 82 83 3d
       0.11322344 -0.06594789 -0.0025933678 0.06421456
0001e0 01 4e 92 3d d9 6d 0d bd 39 46 84 bd 22 0d d6 3d
       0.07143784 -0.034528587 -0.064587064 0.10451724
0001f0 ea e9 3b bd 55 1f 9e bc 58 53 11 bd 35 06 89 3d
       -0.045877375 -0.01930205 -0.035479873 0.06690637
000200 70 93 3d 3d 18 a0 65 3c f9 0d 17 3c 43 25 52 bd
       0.046283185 0.01401522 0.00921964 -0.051305067
000210 b9 57 4f bd b6 60 8e bc ef 4f 08 3c 41 d7 7b 3d
       -0.05062077 -0.0173801 0.008319839 0.06148458
000220 d6 2a b3 3d 73 5b 8f 3d f0 07 8a 3d b5 64 6d 3d
       0.08748405 0.069998644 0.06739795 0.05795737
000230 a9 d0 1c 3d 58 5e 2c bc 88 6d ab bd a4 e5 6d 3c
       0.03828493 -0.01052054 -0.08370501 0.014520083
000240 e9 43 e1 bb 22 84 27 bd 41 e5 aa 3d 35 00 9a 3c
       -0.0068745506 -0.040897496 0.08344508 0.018798927
000250 73 cb 6c bd ce c5 13 3d ea 0b 60 3d e5 2c 5e 3d
       -0.05781121 0.036077313 0.054698862 0.054242034
000260 b8 37 61 bc 0f e9 9c 3c 71 09 48 bd f4 66 a2 3d
       -0.013746195 0.0191541 -0.04883713 0.07929793
000270 42 98 27 bd 0a 3c 15 3d 9c bd 14 bc 92 ae 99 bb
       -0.04091669 0.03643421 -0.0090784095 -0.00469
000280 b6 8d 8e 3d b3 26 a6 3d 35 fe 63 bd d5 35 5c bd
       0.06960623 0.0811285 -0.055662353 -0.053762276
000290 ee 78 8d 3d d8 ae 0b bd 21 d0 94 bc 29 b3 87 3d
       0.06907831 -0.03410229 -0.01816565 0.06625969
0002a0 44 fb 8e bd ab f4 01 3d a1 31 94 3c 47 70 f8 bc
       -0.06981519 0.031727474 0.018090071 -0.030326976
0002b0 3e ff 79 bb ba cd 95 3d ab 7c 53 bd 26 4f 64 bd
       -0.003814652 0.0731463 -0.051632565 -0.055739544
0002c0 8f 7a 99 bd 65 f6 15 3d 47 9b 8a 3d 49 50 a9 bd
       -0.07494079 0.036611933 0.06767898 -0.08267266
0002d0 5a 46 b7 bd 03 88 b1 3d 9d e6 9b bd 9b 0e bd bd
       -0.08948965 0.0866852 -0.07612345 -0.092313014
0002e0 a5 29 65 3d d6 fa 93 bc 63 70 ee bc 25 97 bb bc
       0.05594792 -0.018063944 -0.029106325 -0.02289922
0002f0 97 73 6c bd 01 86 90 bd c8 7c 83 bd 38 e9 1f bd
       -0.057727423 -0.07056809 -0.064202845 -0.039040774
000300 4b 8a 8b bd 8c 42 69 bc f1 20 b7 3c c2 bc 56 3d
       -0.06813487 -0.014237057 0.022354575 0.052426107
000310 ca fd 35 bc f4 0c 25 3d 50 5b 16 bc cf 59 12 bd
       -0.011107871 0.040295556 -0.009177044 -0.03573018
000320 34 e7 75 bd d2 a7 68 bd 8a b8 18 bd 36 f7 af 3d
       -0.060034946 -0.05680067 -0.037285365 0.085920736
000330 ff bd b4 bd 90 ab 6a 3d 25 c4 a4 bd 35 68 b3 3d
       -0.088253014 0.05729252 -0.08045224 0.0876011
000340 5c 37 fb bb 9b ca a4 bd 4f e9 95 bd 64 1b 3d 3d
       -0.0076665115 -0.080464564 -0.07319891 0.0461687
000350 59 ea 9a 3c 64 ee a9 bd 92 b4 66 bd 9f 7e 33 3d
       0.018910574 -0.082974225 -0.05632455 0.043821927
000360 cd eb d7 3c 07 1a 6a bd 0d e9 0e 3c 1c 03 8c bd
       0.026357556 -0.057153728 0.008722556 -0.068365306
000370 c7 20 2d bd b5 64 be 3c d7 54 be 3c ef f4 66 bd
       -0.042267587 0.02324138 0.023233814 -0.05638593
000380 0b d2 2e 3d 00 a7 d5 3c 52 96 50 bd da 51 8b bd
       0.04268078 0.026080608 -0.050924607 -0.06802721
000390 a8 ed 9c 3c 98 19 30 3d e6 5a eb bc 99 44 cc 3a
       0.019156292 0.042993158 -0.028729867 0.0015584409
0003a0 69 38 08 3d ac 0b 50 bd cc 2a 68 bb ba fd c4 bc
       0.033256922 -0.05079238 -0.00354259 -0.024046768
0003b0 9e 88 30 3d fc 12 9e bd b4 c3 07 3d 29 e9 6b 3d
       0.04309904 -0.07718465 0.03314562 0.057595406
0003c0 45 ad b4 b9 b9 3f 85 ba e3 d8 9a bd fb e5 90 bd
       -0.0003446137 -0.0010166086 -0.07560899 -0.07075115
0003d0 f8 75 b3 bd 12 26 87 3d 73 a6 43 bd 67 88 62 3d
       -0.08762735 0.06599058 -0.04776616 0.055305865
0003e0 94 1c 51 bb 81 a0 91 3d 9f 10 5a 3c c8 af 7f 3d
       -0.0031907903 0.07110692 0.013309627 0.062423497
0003f0 6c 1c 6e bd 4d 6e 8b 3d 92 c1 59 3b fc 4f 32 bd
       -0.058132574 0.068081476 0.003322695 -0.04353331

rnn.bias_ih_l1 f4 [128]
000000 95 e4 ad 3c 96 b4 0b bd a7 77 1b 3d 0a 89 98 3d
       0.02122716 -0.034107767 0.037955906 0.07448013
000010 c1 a0 c5 3d b3 e1 be bc c2 cc e7 b8 74 4e 08 bc
       0.09649802 -0.023300981 -0.000110530775 -0.008319486
000020 b0 ad 7c bd a4 92 be bd 3f cf 9d 3d 43 67 66 bd
       -0.06168908 -0.09305313 0.07705545 -0.05625082
000030 e5 1f 71 3d 8d 08 f3 3c a2 97 c5 bb 2c d6 95 bd
       0.058868308 0.029667163 -0.006030039 -0.07316241
000040 d8 2f 89 bb 9d d9 8f 3d f4 4f 57 3d 23 85 c6 bd
       -0.0041866116 0.07023928 0.052566484 -0.096933626
000050 37 75 80 3d fc 10 80 bd 95 95 3a bd ae db 43 3d
       0.06272357 -0.062532395 -0.04555281 0.047816925
000060 dd 62 99 bd 0f e3 31 3d 6a 7a 4f 3c cc 81 9a 3c
       -0.0748956 0.04342943 0.012663463 0.01886072
000070 b5 de c9 bd 72 12 8b bd c5 41 34 3d 34 45 18 bb
       -0.09856931 -0.067906275 0.044008035 -0.0023234608
000080 52 17 a3 3d 71 85 82 bc f4 ed 05 3d b8 48 85 bd
       0.07963432 -0.01593277 0.032697633 -0.065080106
000090 35 ba 56 bd 23 37 ae bd f8 67 ce bc 04 51 5e bd
       -0.052423675 -0.0850661 -0.02519606 -0.05427648
0000a0 a2 09 15 3d 51 8e 46 bd ea 41 13 3c 58 b5 2b 3d
       0.03638614 -0.048475567 0.008987883 0.04192099
0000b0 4e 0d 9e bd 0a cb 5c bd 9b 66 04 bc db a6 09 bd
       -0.077173814 -0.05390457 -0.008081104 -0.03360639
0000c0 03 1f 09 3d dd 7c a9 bd 8b a9 c6 bc cc 5a 84 3c
       0.03347684 -0.08275769 -0.024250766 0.016156577
0000d0 1a 74 b0 3d 26 0f c7 bb f6 38 9e 3d 0c c6 42 3d
       0.086158946 -0.006074804 0.07725708 0.047552153
0000e0 49 17 ba bd e6 c1 b3 3d 38 48 6c bd 41 6a 98 3d
       -0.090864725 0.087772176 -0.05768606 0.07442141
0000f0 35 50 7a bc 0c 2f 5e bd c5 1c 95 3d 4d 48 b0 bd
       -0.015277912 -0.054244086 0.07280878 -0.0860754
000100 58 da c6 3c 74 83 a9 bd 97 fc 5c bc c4 61 d9 bc
       0.024274036 -0.08277026 -0.0134879565 -0.026535876
000110 19 7b 99 bc 7e 2f a6 3c 7d 4d 02 3d 16 92 57 3d
       -0.018735455 0.020286318 0.03181218 0.052629553
000120 17 48 97 bd d5 9f 2b 3d c6 18 33 3d 66 d0 6c 3b
       -0.07386797 0.041900475 0.043724798 0.0036134957
000130 0d c8 06 bd 2c dc 60 3d 7b 42 ee 3c da e7 8c bd
       -0.032905627 0.054897472 0.029084435 -0.0688016
000140 7e c0 aa bc 66 ab 02 3d 3a 7d fe bb d8 87 a7 bc
       -0.02084374 0.03190174 -0.007766393 -0.020450518
000150 e2 2b e0 bd e7 c8 ce bd 26 ab 00 bd 60 a6 6b bd
       -0.1094587 -0.10096913 -0.03141322 -0.057531714
000160 0f 76 6c bd 90 d8 79 3d 2a d2 c4 3d de 2a dc bc
       -0.057729777 0.060997546 0.09610398 -0.02687591
000170 a2 b0 5d bb 67 f9 67 3d fa 02 45 3c 2a fc cf 3d
       -0.0033827205 0.056634333 0.012024635 0.10155518
000180 7b 74 f8 3c 26 26 19 bd 7b d3 90 3d a8 0c 12 3d
       0.03032898 -0.037389897 0.07071587 0.0356566
000190 c5 7a cd 3d eb be 8c 3d 2c 24 24 3d 84 ad 96 3d
       0.10033182 0.06872352 0.04007356 0.07357314
0001a0 3d 61 b9 3c 98 3d ea 3c 04 4c e2 3c ac 97 77 bd
       0.022629375 0.028593823 0.027624138 -0.06044738
0001b0 18 10 97 bd 99 dd bb bd b7 2b cf bc 84 86 0b 3d
       -0.073761165 -0.09173126 -0.0252894 0.03406383
0001c0 3f b2 9f bc c9 36 84 3d 29 5c a4 3c f3 73 8b 3d
       -0.019494174 0.06455762 0.020063477 0.06809225
0001d0 69 5d d6 bc aa 10 a5 3d 19 41 cb 3d c9 c3 98 3d
       -0.026167588 0.08059819 0.09924526 0.07459218
0001e0 a8 10 b3 bd 06 91 2c 3d 63 77 9e bd 83 e6 ff 3c
       -0.08743411 0.042130493 -0.07737615 0.031237846
0001f0 d1 93 8f 3d 77 c2 a0 bd 2b 17 14 bd 77 f8 7d bd
       0.070106156 -0.07849591 -0.036154907 -0.062004533

rnn.bias_hh_l1 f4 [128]
000000 4b 14 94 bd 9d bf b2 bd e3 63 8d 3d e6 5b da 3c
       -0.07230433 -0.087279536 0.069038175 0.026655149
000010 38 4e f4 bc 05 bb 8d bc 32 e8 c6 3d 81 10 c2 bc
       -0.029822454 -0.017301092 0.097122565 -0.02368951
000020 b2 eb b2 3c be 98 6c bd a0 9f 99 3b 90 de 1a bd
       0.021840904 -0.057762854 0.0046882182 -0.03780991
000030 1f 73 1a bd b3 cf 92 bd 58 18 8d 3d 03 54 63 3b
       -0.037707444 -0.07168522 0.06889409 0.0034687526
000040 c2 35 a9 3c 34 23 66 3d a1 fb 63 3d 74 7c 3d bd
       0.020655517 0.056185916 0.055659894 -0.046261266
000050 8c 7b 62 3c 1f 86 d5 3a ba 8c 5d bd 48 69 0e bd
       0.013823401 0.0016290582 -0.054089285 -0.034768373
000060 53 23 17 bd e7 39 68 3d 87 ad 8a bd a7 3b a3 b9
       -0.036898922 0.056695845 -0.06771379 -0.00031134227
000070 8e cf 7d 3d a8 a3 03 bb 51 0e 2b 3c 26 02 a3 3d
       0.061965518 -0.002008656 0.010440425 0.07959394
000080 cc 4c 41 3c 38 e9 38 bd 18 b6 87 3d 56 79 03 3d
       0.011798095 -0.04514429 0.066265285 0.032098137
000090 6f 3c cd bd bf d2 a4 3b 32 8e 81 3d 1e cf 9f 3c
       -0.100212924 0.0050300057 0.0632595 0.01950794
0000a0 b7 5f 9c 3c aa 5f a4 bd b1 54 7c 3d 73 e9 d1 bb
       0.01908861 -0.08026059 0.061604206 -0.006406003
0000b0 8b 3b 6f 3d fd da 54 3d 61 36 4f bd 23 b1 bd 3d
       0.058406394 0.051966656 -0.05058897 0.09262302
0000c0 cd 54 bc 3d 6b 78 cc bd aa 99 20 bd aa 57 87 3d
       0.09195862 -0.099839054 -0.039209045 0.066085175
0000d0 1b 6f 4f 3d 74 cd 10 bd b4 e0 bb bd 48 72 66 bd
       0.050643068 -0.035352185 -0.09173718 -0.05626133
0000e0 25 6f c6 3c 7f 51 83 bc b1 0a 88 bd a7 d7 19 3d
       0.02422292 -0.016030071 -0.06642664 0.037559178
0000f0 45 aa c8 3c be 3d a8 bc d3 8e b7 3d 94 9e 6d bc
       0.024495253 -0.020537253 0.089627884 -0.01450314
000100 f1 65 da 3c 63 bf 98 bd 6d 29 18 3d 8e 2a 09 3d
       0.026659938 -0.07458379 0.03714888 0.03348785
000110 52 d8 4a 3d 7e 3d 63 3d c3 c8 9d bd 7f c2 bf bc
       0.049522705 0.055478565 -0.07704308 -0.023408173
000120 d1 b9 32 bd 51 67 59 bd 75 ac 8f 3d 25 11 82 3d
       -0.04363424 -0.053077046 0.070153154 0.06350926
000130 55 81 31 3d 81 66 89 3c fe 6e cd bd ce de 93 bd
       0.04333623 0.01677251 -0.10030936 -0.07220231
000140 5d a9 2b bd 9f 25 e6 3d 00 09 b3 bd 7d 1a a9 bd
       -0.041909564 0.112376444 -0.08741951 -0.08257005
000150 55 4b d0 bc f5 9c ad bc 4b 63 cc 3d 6c 7a 8b bc
       -0.025426546 -0.021193007 0.09979876 -0.017026149
000160 93 44 11 bd ab e7 31 bd 6a 3b 5e bd 2e 1f 0b bb
       -0.035465788 -0.043433826 -0.05425588 -0.0021228301
000170 63 c6 44 3d ea 14 a9 bd f4 e2 97 bd 32 bd 41 3d
       0.04804076 -0.08255942 -0.07416335 0.04729957
000180 bc 92 80 bd cc c2 e1 3b 63 12 38 3d 90 30 13 3d
       -0.06277987 0.0068896767 0.04493941 0.035934985
000190 3f 02 ae 3d 44 b7 74 bd 2f 28 96 3d 71 4b 9c 3d
       0.08496522 -0.05974509 0.07331883 0.07631577
0001a0 75 c5 63 bd 44 b7 90 3c 1b 42 8c bc bd 50 a9 3d
       -0.05560823 0.017665513 -0.017121365 0.08267353
0001b0 28 74 6e bd 30 da 6f 3d da 0e bf 3d 87 a1 de bd
       -0.058216244 0.05855769 0.093290046 -0.10870653
0001c0 fa 36 0a 3d fd 95 2e 3d 50 c5 6f 3d 3d 4b 78 bd
       0.033743836 0.04262351 0.05853778 -0.060618628
0001d0 70 3a ab bd b3 1c ce 3d 6f 9c 49 bc d6 cf e8 bc
       -0.083607554 0.10064068 -0.012305363 -0.028419416
0001e0 87 ee df bb b1 0a e3 3c fe 2c 03 bd 54 03 1e bd
       -0.0068338546 0.027715059 -0.03202533 -0.038577393
0001f0 c1 f7 61 3b 19 a0 55 3c 9b ab ca bd 66 10 b2 3c
       0.0034479948 0.013038659 -0.098960124 0.021736335

fc.weight f4 [68, 128]
000000 8b 0b 20 3d 34 90 3d bd ec 4f 7a bc 38 73 e6 bd
       0.03907351 -0.0462801 -0.015277844 -0.11252445
000010 2c 49 9d bd 32 78 81 3b 9f 5c d4 bb c6 12 3e bd
       -0.07679972 0.003951096 -0.006480768 -0.046404622
000020 d6 e5 2a bd fd 71 93 3d 2d 0d ce bc 88 28 15 be
       -0.041723095 0.07199476 -0.025152767 -0.14566243
000030 22 85 e3 bb 43 54 0e bd 3d bb b3 3e 2a 02 78 be
       -0.006943361 -0.034748327 0.3510379 -0.24219576
000040 4d aa 4c 3a 75 4d be bc a7 83 a3 bd 1c 4e ff be
       0.0007807359 -0.023230294 -0.07984095 -0.4986428
000050 47 7f 87 bd 07 4f 01 3d 51 19 36 3d 67 35 bd 3d
       -0.06616073 0.031569507 0.044457737 0.09238701
000060 d6 25 b2 3c 3a c6 8b 3d 67 18 9a bd da e6 bb 3c
       0.021746557 0.06824918 -0.07524186 0.022937227
000070 47 6d 4f 3c c7 2e 80 bc 45 92 f1 bc d1 9f d7 3c
       0.012660331 -0.015647305 -0.029488692 0.026321324
000080 d1 47 64 bd 3b 1f 87 3d b5 da 84 bd 69 b9 91 bd
       -0.055732552 0.065977536 -0.064870276 -0.07115442
000090 78 2e 35 bd 6b d2 5e be cc e0 ef bc 7b 1c ba bd
       -0.04423377 -0.21759956 -0.029281996 -0.090874635
0000a0 29 50 e5 3b b9 e5 dd 3c ca 8a 9d 3e 78 a4 59 bd
       0.006998081 0.02708708 0.3076995 -0.053135365
0000b0 0e 52 22 be 21 25 df 3d ec 79 7b 3c 74 01 41 bc
       -0.15851614 0.10895754 0.015348893 -0.011780132
0000c0 4d e2 0b be 31 7e d5 3d 51 5b 0a 3e 05 66 c2 bd
       -0.13660546 0.1042446 0.13511397 -0.09492115
0000d0 a1 73 1c bd 03 12 2e bb 19 e6 23 3e 38 6c bf 3d
       -0.03819621 -0.0026561029 0.16005744 0.09346813
0000e0 63 45 45 3b 7a 90 26 3d b5 d6 bd bd b8 93 cb bd
       0.0030101172 0.040665127 -0.09269468 -0.099402845
0000f0 d8 8c 0b 3e 07 ca 63 bc 87 21 d5 bd fe 6e 9c 3c
       0.13627946 -0.013903148 -0.104067855 0.019095894
000100 6a a0 3e 3c 53 b6 ca bc 6e e1 6f bd ba 1a fa 3d
       0.011634925 -0.024745142 -0.058564596 0.12212129
000110 a9 46 19 be 2b 61 0b bc 20 fa 27 bd bf fa 5c 3d
       -0.14968361 -0.008507053 -0.041010022 0.053950068
000120 6b da d8 bc 84 50 0d 3e a5 f8 02 bd 29 d5 29 3d
       -0.026471337 0.13800246 -0.031975407 0.04146305
000130 0c bf 52 bd 03 9f 1e bd ad 1a 99 3d 9d 83 67 bc
       -0.051451728 -0.038725864 0.07475791 -0.0141305
000140 d9 ad 92 bc 4f 52 b1 bc 0d 21 33 bd 67 77 8d bd
       -0.017905163 -0.021645693 -0.04373269 -0.0690754
000150 02 5a c7 be 1a f0 a1 bc 1f 58 15 3f 47 20 0f bc
       -0.38935858 -0.01976781 0.5833759 -0.008735723
000160 0f f1 8e be d1 09 8a 3d 28 d5 42 bd e1 6b 11 bd
       -0.27918288 0.067401536 -0.047566563 -0.035503272
000170 35 8a 03 bd 74 0b ae 3c 2d 55 97 3d ea 40 ac ba
       -0.032114226 0.021245696 0.07389293 -0.0013141904
000180 30 d9 f2 bd 95 6a dd ba 28 bd 0a be 96 83 02 be
       -0.118578315 -0.0016892726 -0.1354872 -0.12745509
000190 8d 93 f7 bd ff 04 a5 bb 39 a4 02 3d 19 18 c1 bd
       -0.1208869 -0.005035996 0.031894896 -0.094284244
0001a0 18 88 43 bc 7d a7 87 bd 0d 69 f3 3c 46 c3 07 3e
       -0.011934303 -0.06623743 0.029713178 0.13258085
0001b0 5d 73 ae bd 60 90 b6 3b f0 0d 72 bd 21 2f b5 3d
       -0.085180975 0.00557141 -0.059095323 0.0884688
0001c0 10 67 ba 3d aa 83 12 3d cb 66 a2 bd e9 e0 39 3e
       0.09101689 0.035770096 -0.079297625 0.18152203
0001d0 66 2f 9a 3d 06 9a 05 be e6 b9 84 bd 9a 2f ac 3d
       0.07528572 -0.13047037 -0.0648077 0.08407517
0001e0 1a 35 a5 3d 91 48 9c 3d 24 c0 cd bc 2f ab 1a bd
       0.08066769 0.076310284 -0.025116034 -0.03776091
0001f0 cb 3c 04 be 5a 56 42 3d 3b 60 02 3d 31 72 f8 bb
       -0.12913816 0.047445633 0.031830054 -0.007581972
000200 ec 5c 12 3d 51 8e 17 3d ce 38 d7 bd 38 05 7d bd
       0.03573315 0.037000958 -0.105088815 -0.061772555
000210 29 e3 82 3b 60 c7 e3 3d 76 87 fc bd 0a 00 b7 bc
       0.0039943648 0.11122012 -0.123305246 -0.022338886
000220 34 aa d1 3b 6f 93 05 bd 35 d7 6f bc 5b dd 32 be
       0.0063984636 -0.032611307 -0.014638712 -0.17467253
000230 98 53 a4 bd 29 6f c5 3d 61 c5 4d 3e d2 be 5e be
       -0.08023757 0.09640343 0.20094825 -0.2175248
000240 ce a6 83 bd 6f 1a 00 be 54 29 a2 bd 9e 84 21 bf
       -0.064283 -0.12510084 -0.07918039 -0.6309298
000250 c9 86 9c bc 4b ce 94 bd cd dd bf 3d 7f 1b d9 3d
       -0.01910724 -0.0726591 0.09368477 0.106009476
000260 ab d3 69 3d 8e f1 73 3a 98 92 80 3d 99 ce b1 bd
       0.057086628 0.0009305709 0.062779605 -0.086819835
000270 aa ce 90 bd bc 4e 86 bc 4f 35 41 3d fd a7 cc bc
       -0.07070668 -0.016394965 0.04716998 -0.024982447
000280 51 b8 a4 bd 5d 6e 8c bd ec 99 32 3d de e3 bf bd
       -0.08042968 -0.068569876 0.043603823 -0.09369634
000290 56 fd b1 bd 55 d2 43 be af 31 6a 3d 1d 41 90 bd
       -0.08690898 -0.19123204 0.05717629 -0.070436694
0002a0 19 57 04 3c 44 fc 6c 3c 03 79 8c 3e 7b 9d f5 3b
       0.008077406 0.014464442 0.27436075 0.00749558
0002b0 cf e8 0f 3d f9 c5 61 bd 6f bc a2 3d 44 f2 0c be
       0.035134133 -0.055120442 0.07946097 -0.13764292
0002c0 16 9f 8a bd 56 35 aa 3d bd ae cc 3d 41 d9 2b bd
       -0.067686245 0.08310954 0.09994266 -0.041955236
0002d0 fc 20 62 bd 86 f4 83 bd 86 f1 25 3e fe c0 82 bd
       -0.055207238 -0.064431235 0.16205415 -0.063844666
0002e0 77 57 4d 3c 9a 94 4d 3d c5 df 96 bc e9 1b 95 bd
       0.01253306 0.050190546 -0.018417249 -0.07280714
0002f0 e4 02 10 3e 47 c1 93 bb eb 37 85 bd d2 93 e9 bc
       0.14063603 -0.0045091244 -0.06504806 -0.028512869
000300 71 b8 1a 3e 1c 5e 8d bd af e6 90 bd 15 55 84 3d
       0.15109421 -0.069027156 -0.070752494 0.064615406
000310 cc 1d f1 bd e2 01 36 bb 4c c4 62 bd e5 55 a5 bd
       -0.117732614 -0.0027772118 -0.055362985 -0.08073024
000320 d9 0a c0 3d 81 5f b0 bb 2f 61 99 3c 8a 05 5c 3c
       0.09377069 -0.0053824787 0.018723099 0.013429055
000330 3f d8 0c 3d d2 04 3e bd e6 96 1a 3d a9 9a 3f 3d
       0.034385916 -0.046391316 0.037741564 0.046778355
000340 2e f6 8e bc 1a fc 0c 3c 79 f2 00 be d5 f2 56 bc
       -0.017451372 0.008605028 -0.12592496 -0.013119419
000350 80 7e b3 be 81 9e 7a bd 2c f5 25 3f a9 16 a6 3d
       -0.3505745 -0.061186317 0.6482723 0.08109791
000360 df 2e 36 be 47 6f e4 3c 75 11 99 bd 0e c0 d1 bd
       -0.17791317 0.027885092 -0.07474033 -0.1024171
000370 86 80 17 bd db 1f 9a bc 5e 9f f3 3c a3 3a b4 bc
       -0.036987804 -0.018814018 0.029739078 -0.022000616
000380 5f 11 e7 bd ec ab a0 bd 2e 16 00 be 34 41 9f bc
       -0.1128261 -0.078452915 -0.12508461 -0.019440271
000390 9b d7 d0 bd 60 33 68 bd 3c 03 14 3d fa d7 d6 bd
       -0.101973735 -0.05668962 0.036135897 -0.10490413
0003a0 bb 1b 76 3d b8 6a c4 bd ee b1 55 3d ee bb b9 3d
       0.06008504 -0.095906675 0.05217164 0.09069048
0003b0 c5 da 1a 3d 2a 77 34 3d 20 2f 78 bd 57 22 f3 bc
       0.03780629 0.044058956 -0.060591817 -0.02967946
0003c0 1e 4b ab 3d 69 d9 c7 3d 13 eb f4 3c ef aa 44 3e
       0.08363937 0.097582646 0.029897248 0.19205831
0003d0 d0 2a 7b 3c 08 54 c8 bd 43 36 33 3d e8 a2 c5 3c
       0.0153300315 -0.09781653 0.04375292 0.024125531
0003e0 d0 82 98 bd a4 76 d2 3d 89 cb a1 3d 85 70 3a 3d
       -0.074468255 0.10276535 0.079001494 0.045517463
0003f0 13 f6 ee bd b8 a1 df 3d 25 d6 f1 bc df 81 70 3d
       -0.11668029 0.10919517 -0.029521057 0.058717605
