logs/FMDepthRNN/checkpoints/last_full.pth (torch, 713248 bytes, 30 tensors)

rnn.weight_ih_l0 f4 [128, 2]
0	0xbb1c0652	-0.0023807478
1	0xbd66a96a	-0.05631391
2	0x3c8dac01	0.017293932
3	0xbc8ccff4	-0.017189004
4	0xbe11e50b	-0.14247529
5	0xbdefcf71	-0.11709488
6	0xbd896a75	-0.06709758
7	0x3da2d7eb	0.07951339
8	0xbcb8d2c6	-0.022561442
9	0x3dfcbfef	0.12341296
10	0x3d9ec273	0.07751932
11	0x3d609775	0.05483194
12	0xbdab0c8d	-0.08352003
13	0xbdd9a883	-0.10627844
14	0xbd74b14d	-0.0597394
15	0x3d0e6934	0.0347683
16	0x3d70bbab	0.058772724
17	0xbe4f8eb9	-0.20269288
18	0x3e0ed7d3	0.13949518
19	0xbd826b2a	-0.06368096
20	0x3dc2cb5f	0.09511446
21	0xbb9042a1	-0.004402474
22	0xbd15d6dc	-0.03658186
23	0x3dc1cdd0	0.09463084
24	0x3b727ac8	0.0036999453
25	0x3c870361	0.016481103
26	0x3d4eb163	0.050462138
27	0x3d248d89	0.04017404
28	0x3d4226b1	0.04740018
29	0xbd81269d	-0.06306193
30	0x3dadcfac	0.08486876
31	0x3cbb5d7a	0.022871722
32	0xbdb13a1d	-0.08653662
33	0x3cdc45d0	0.026888758
34	0x3e0b62e7	0.13611947
35	0x3e4f0fab	0.2022082
36	0xbd2a4002	-0.04156495
37	0xbd3ecb34	-0.04658051
38	0xbc6e3f55	-0.014541467
39	0xbd3e133b	-0.04640506
40	0x3daa9c48	0.083305895
41	0xbdb162ea	-0.086614445
42	0xbe5dc59f	-0.21657418
43	0x3e016296	0.12635264
44	0x3dc69dd8	0.09698075
45	0x3c12abac	0.008952063
46	0xb8bfa232	-9.137801e-05
47	0xbce5ff00	-0.028075695
48	0xbe0105eb	-0.12599914
49	0xbe2845b2	-0.16432837
50	0xbe0a7793	-0.13522176
51	0x3e5164b8	0.20448577
52	0x3db2cf2d	0.08730922
53	0xbd24240f	-0.04007345
54	0xbe2a0d6c	-0.16606683
55	0x3cb0d5c9	0.021586316
56	0x3b4a03d6	0.003082504
57	0xbd1e5a9d	-0.038660634
58	0x3ddcfca4	0.10790375
59	0x3d1ae42c	0.037815258
60	0xbdef57fa	-0.11686702
61	0x3c2a5031	0.010395096
62	0x3dd8867a	0.10572524
63	0xbdddf503	-0.10837748
64	0xbd0bf540	-0.034169436
65	0x3d1a64e2	0.037693866
66	0xbd2815e2	-0.041036494
67	0xbd5be233	-0.053682517
68	0xbca983d2	-0.02069274
69	0x3e37018e	0.17871687
70	0x3d3b20d9	0.045685623
71	0xbe136f4a	-0.14397922
72	0x3d0c4e65	0.03425445
73	0xbd128ce0	-0.03577888
74	0xbda01759	-0.07816953
75	0x3e095dc0	0.13414669
76	0x3bde7630	0.0067889914
77	0xbb4cde76	-0.0031260527
78	0x3c8b4c9f	0.01700431
79	0xbc108f8a	-0.008823285
80	0x3da80e5d	0.082058646
81	0xbd9b67db	-0.07588168
82	0xba82d80e	-0.0009982602
83	0x3b36a345	0.0027868312
84	0xbd47adc6	-0.048749708
85	0x3c631950	0.013861015
86	0x3e70b73c	0.23507398
87	0x3ce6e05b	0.028183153
88	0xbda4786e	-0.08030783
89	0x3e16b845	0.14718731
90	0xbe310d3e	-0.17290208
91	0x3d515f0d	0.051116038
92	0x3d239332	0.0399353
93	0xbb9bad28	-0.0047508664
94	0xbddea74b	-0.10871752
95	0xbd0e53b3	-0.03474779
96	0xbe29b28f	-0.16572021
97	0x3e4e25ea	0.2013165
98	0x3cf58816	0.029972117
99	0x3dfba997	0.12288206
100	0xbdf0e0ac	-0.11761603
101	0xbd9d959c	-0.07694551
102	0xbde4a40c	-0.11164102
103	0x3da78eb2	0.08181514
104	0xbe46aefb	-0.19402687
105	0xbd9c27aa	-0.07624753
106	0x3d705f26	0.05868449
107	0xbcc55b27	-0.024091316
108	0xbbc9cfa9	-0.006158788
109	0x3d8c8bcd	0.068626024
110	0xbe24c2f0	-0.16089988
111	0x3e5614d4	0.20906383
112	0x3d8899e9	0.06669981
113	0xbbf195a7	-0.0073725763
114	0x3c043aa8	0.008070625
115	0xbe5226c1	-0.20522596
116	0xbd80a96a	-0.06282313
117	0xbd8c66c1	-0.06855536
118	0xbe179779	-0.14803876
119	0x3e38ff62	0.18066171
120	0xbd6cdddc	-0.05782877
121	0xbdf15e4d	-0.117855646
122	0x3da7dcbe	0.081964
123	0xbdc4eeb4	-0.096158415
124	0x3b071e4a	0.002061742
125	0xbd1e387f	-0.038628098
126	0xbdf309e1	-0.118671186
127	0xbd9a8ca3	-0.075463556
128	0x3daa9ad3	0.083303116
129	0x3ddaab30	0.10677183
130	0xbd3bf1ef	-0.045885023
131	0xbd01ae23	-0.03166021
132	0xbe70e991	-0.23526599
133	0x3e2619ed	0.16220827
134	0x3dd4d395	0.103919186
135	0x3d6b8962	0.057504065
136	0xbe390d44	-0.18071467
137	0x3d952631	0.07282675
138	0x3d97c316	0.074102566
139	0x3db5b122	0.08871676
140	0xbccd53a9	-0.025064306
141	0x3e08e26e	0.13367626
142	0x3ceb0693	0.028689658
143	0xbd5bbe68	-0.053648382
144	0xbd4ff195	-0.0507675
145	0xbda4c4b1	-0.080453284
146	0xbd7ca663	-0.061682116
147	0x3d5ffe02	0.0546856
148	0x3e0cc026	0.13745174
149	0xbc62c596	-0.0138410535
150	0xbd755acd	-0.059901047
151	0xbd75a684	-0.059973255
152	0xbdfd4deb	-0.12368377
153	0x3e012605	0.1261216
154	0x3d8da687	0.06916528
155	0xbd247497	-0.04015025
156	0xbe1437dd	-0.14474435
157	0x3d0d4ff5	0.03450008
158	0x3be64c54	0.007028142
159	0x3c5dcc4e	0.01353748
160	0xbb519ef8	-0.0031985622
161	0xbc3b2572	-0.011422502
162	0xbd440f51	-0.04786617
163	0xbdbcfc3d	-0.09227798
164	0x3c3fb09b	0.011699821
165	0xbd35c682	-0.044378765
166	0x3c9f02f7	0.019410593
167	0xbd6ab456	-0.057300888
168	0x3d8f39aa	0.069934204
169	0x3b2e922a	0.0026637414
170	0x3dbcdcf0	0.09221828
171	0xbd8afafb	-0.06786152
172	0x3d7d0a97	0.061777677
173	0xbb8e6d6b	-0.0043465397
174	0xbcb7338b	-0.022363445
175	0xbc6abca4	-0.014327202
176	0xbdd9adb0	-0.106288314
177	0xbd49ac5d	-0.049236644
178	0x3db373f9	0.087623544
179	0xbcf52dca	-0.02992906
180	0x3df6e6e6	0.12055759
181	0x3d2e539e	0.042560212
182	0xbc7d680d	-0.015466702
183	0x3ce22fab	0.02761062
184	0x3d03e3fa	0.032199837
185	0xbda6e8f3	-0.081499
186	0xbdfc44e9	-0.12317831
187	0x3e036f31	0.12835385
188	0x3d18a0a1	0.037262563
189	0x3c8b9623	0.017039364
190	0x3ddc3cd1	0.10753787
191	0x3e06bebd	0.13158698
192	0x3d877772	0.06614579
193	0xbe2f88e0	-0.17142057
194	0x39f7b157	0.0004724364
195	0x3c93f023	0.018058842
196	0x3c5b2753	0.013376075
197	0x3e386ef6	0.18011078
198	0xba82b089	-0.0009970824
199	0xbde2265d	-0.110424735
200	0x3d9875fa	0.07444377
201	0x3dc6c4aa	0.097054794
202	0xbca4207d	-0.020035023
203	0xbe391791	-0.18075396
204	0xbda08be3	-0.07839181
205	0x3c766db3	0.015040803
206	0xbd995de3	-0.074886106
207	0x3e689cb4	0.22716027
208	0xbd26ddd9	-0.040738914
209	0x3de54dbc	0.11196467
210	0xbdc72c8e	-0.09725295
211	0x3d8948b4	0.0670332
212	0xbd9989bb	-0.07496973
213	0x3df2e1cf	0.11859476
214	0x3d9285a1	0.07154394
215	0x3c29a029	0.010353127
216	0x3d48ff39	0.049071524
217	0x3d13ba65	0.03606643
218	0xbc49fd8b	-0.012328516
219	0xba9905db	-0.0011674719
220	0x3d481a9c	0.0488535
221	0xbdfc1792	-0.12309183
222	0xbe0e8b5a	-0.13920346
223	0x3d5a25a5	0.053258557
224	0xbc2a53d1	-0.01039596
225	0xbdddef87	-0.10836702
226	0x3a43ed26	0.00074739975
227	0xbc87a155	-0.016556421
228	0xbdfa6561	-0.12226368
229	0x3c245a55	0.010031302
230	0xbe16af13	-0.14715223
231	0x3d9677b7	0.073470525
232	0x3dcb9d1f	0.09942078
233	0x3ddf410a	0.10901077
234	0x3e4a81d7	0.19776092
235	0x3d134c1d	0.03596126
236	0x3e05d776	0.13070473
237	0xbcab26d7	-0.020892544
238	0x3e2f7b2f	0.17136835
239	0x3d3d6b70	0.04624504
240	0xbd43fcfa	-0.04784868
241	0xbd56e576	-0.052464925
242	0xbdc3eb46	-0.09566359
243	0xbc62e5b0	-0.013848707
244	0xbdab157d	-0.08353708
245	0x3e12e524	0.14345223
246	0xbdcd9a95	-0.1003925
247	0xbdabf3a9	-0.08396084
248	0xbc5033ca	-0.01270766
249	0x3d96a6a1	0.07356001
250	0x3c4485b7	0.011994771
251	0x3c0015cd	0.007817698
252	0x3c754f68	0.014972545
253	0x3e9ded68	0.3084519
254	0xbde84525	-0.11341313
255	0x3e101d06	0.14073572

rnn.weight_hh_l0 f4 [128, 128]
0	0x3c9e3d0c	0.019316219
1	0x3d8b17db	0.067916594
2	0xbe24654f	-0.16054271
3	0xbd139cb7	-0.036038127
4	0xbcb0f707	-0.021602167
5	0x3dbf1565	0.093302526
6	0x3c90a269	0.017655568
7	0xbd9dafbc	-0.07699534
8	0xbd3fa121	-0.046784524
9	0x3ca259f8	0.019818291
10	0x3cf34404	0.029695518
11	0xbd521edf	-0.051298972
12	0xbda992f0	-0.08279979
13	0x3da59be0	0.080863714
14	0xbdadffce	-0.084960565
15	0xbca5cade	-0.020238336
16	0xbbb8d865	-0.0056410306
17	0x3eac9454	0.33706915
18	0xbd55a9bc	-0.052163824
19	0xbd500a20	-0.050790906
20	0xbcbfd76b	-0.023418149
21	0xbd9a8c1f	-0.07546257
22	0x3d745d5e	0.059659354
23	0x3d24157c	0.04005955
24	0x3e50d558	0.20393884
25	0x3dbbc82d	0.0916904
26	0xbd7a3c8a	-0.06109289
27	0xbc80bafe	-0.015714165
28	0xbd8ef5a8	-0.06980449
29	0x3b39ba8d	0.0028339953
30	0xbd936cef	-0.07198512
31	0xbdb7d5ae	-0.08976303
32	0x3d69d212	0.057085104
33	0x3b09753e	0.0020974423
34	0x3a897785	0.001048789
35	0xbc37fe68	-0.011230089
36	0xbd9cccd2	-0.07656254
37	0x3c100f86	0.008792764
38	0x3cb67694	0.02227334
39	0x3d934296	0.07190435
40	0xbd15e5a2	-0.036595948
41	0x3dac7cad	0.084222175
42	0xbd4127b1	-0.047156993
43	0x3c0aba9b	0.008467342
44	0x3dabb7b1	0.08384646
45	0x3cc5942a	0.024118502
46	0xbcf8ae0a	-0.030356426
47	0x3d5d036e	0.05395835
48	0xbe360264	-0.1777435
49	0xbc84dc0d	-0.01621821
50	0xbd483351	-0.048877064
51	0xbd8f1966	-0.06987266
52	0x3e2515bf	0.16121577
53	0xbd93c7da	-0.07215853
54	0x3d54caf7	0.051951375
55	0xbdf771b8	-0.12082237
56	0xbda0ca5f	-0.07851099
57	0x3dc904cc	0.09815368
58	0x3d5dab62	0.05411852
59	0x3dbf7a5a	0.093495086
60	0x3e304078	0.17212093
61	0x3d97221f	0.07379555
62	0x3db78816	0.08961503
63	0xbd6190a5	-0.055069584
64	0x3d6ad8da	0.057335712
65	0xbccc6671	-0.024951192
66	0x3d11ff30	0.035643756
67	0xbd5e0369	-0.05420247
68	0xbd83ad37	-0.064295225
69	0xbd6b0074	-0.05737348
70	0xbc07f1de	-0.008297412
71	0x3ac198a5	0.0014770223
72	0xbc1115f9	-0.008855336
73	0xbd7f6a78	-0.062357396
74	0x3d41ea83	0.04734279
75	0x3d5038b4	0.050835326
76	0xbd825347	-0.0636354
77	0xbdf46f6a	-0.11935313
78	0xbd220f58	-0.039565414
79	0x3d1cad91	0.038251463
80	0xbd856b76	-0.06514637
81	0x3bc17dcd	0.005904889
82	0x3ca1b37b	0.019738903
83	0xbe14d8f2	-0.14535883
84	0x3db329c2	0.08748199
85	0x3d64da5a	0.0558723
86	0x3d758e1b	0.059949975
87	0xbd00939f	-0.031390782
88	0xbdbc0c98	-0.091820896
89	0x3c9cb992	0.019131456
90	0x3d6ffe64	0.058592215
91	0x3d311b71	0.04323906
92	0xbd964bf4	-0.07338706
93	0x3da4a17c	0.08038613
94	0xbd5f99f5	-0.054590184
95	0xbbf18b80	-0.007371366
96	0x3e04d693	0.12972479
97	0x3d86b166	0.06576805
98	0xbd9682ba	-0.07349153
99	0xbd4e559a	-0.050374605
100	0x3d387fb5	0.045043666
101	0x3c34dcaf	0.011038943
102	0xbc6cc45a	-0.014451111
103	0x3daa3043	0.083099864
104	0x3ce25936	0.02763043
105	0x3cb050ea	0.021522958
106	0xbde9c0cc	-0.11413726
107	0x3abc141a	0.0014349252
108	0x3cdd5d6f	0.027022092
109	0xbc987e56	-0.01861493
110	0xbb413789	-0.0029482564
111	0x3d8e6cd1	0.06954349
112	0x3d563231	0.05229396
113	0xbd7d0619	-0.061773393
114	0x3d746c5b	0.05967365
115	0x3cc43a55	0.023953596
116	0x3d842230	0.06451833
117	0xbceccb7e	-0.028905626
118	0x3da7ebd2	0.08199276
119	0xbc1af31e	-0.009457378
120	0xbd41da65	-0.047327418
121	0x3daf7d14	0.08568779
122	0x3db3c636	0.0877804
123	0x3d86c2e0	0.06580138
124	0xbccba781	-0.024860146
125	0xbd1c04cf	-0.038090523
126	0x3d2f77e3	0.042838942
127	0x3d78beb6	0.06072875
128	0xbcd4b744	-0.025966294
129	0x3b914eb2	0.00443443
130	0xba4d9a2e	-0.0007843104
131	0x3bc1f0ed	0.005918613
132	0x3cb25308	0.021768108
133	0x3be44c6b	0.0069671175
134	0xbbd8da83	-0.0066178455
135	0xbdd7f6b9	-0.105451055
136	0xbda21705	-0.07914547
137	0xbd6c40fe	-0.05767917
138	0x3d021254	0.03175576
139	0xbd4c4fbd	-0.04988073
140	0xbc427b14	-0.011870164
141	0xbd0d3be2	-0.034480937
142	0xbd107efb	-0.035277348
143	0x3d49c6ac	0.049261734
144	0xbd2cd18d	-0.04219203
145	0x3d281753	0.04103787
146	0x3d4f5257	0.050615635
147	0xbdb04dd4	-0.086085945
148	0x39fd3bcc	0.00048300473
149	0x3d68c6ef	0.056830343
150	0xbdad2c4f	-0.08455717
151	0x3c6b4d30	0.014361665
152	0x3b0245a1	0.0019877928
153	0x3adee1fb	0.0017004603
154	0xbcbd7ac8	-0.023129836
155	0xbdb6a54f	-0.08918249
156	0xbddd712f	-0.10812604
157	0x3d0c6a95	0.034281332
158	0xbd9be213	-0.076114796
159	0xbdfc5b96	-0.12322156
160	0xbdfdeb79	-0.123984285
161	0xbde4f2d6	-0.1117913
162	0xbce64495	-0.028108874
163	0xbc963c40	-0.018339276
164	0xbd522a8a	-0.0513101
165	0xbd8aa1a4	-0.06769112
166	0x3c6262b1	0.013817475
167	0x3d03e141	0.03219724
168	0xbba2db6e	-0.0049700057
169	0xbd42e4a6	-0.047581337
170	0x3d2648bc	0.04059671
171	0x3da91a16	0.082569286
172	0xbd958a0c	-0.07301721
173	0x3d28a7c6	0.041175626
174	0xbd944b78	-0.07240957
175	0xbdc29702	-0.09501459
176	0x3c9ac45c	0.01889246
177	0xbc82cae9	-0.015965896
178	0x3d41c865	0.04731025
179	0xbd2be037	-0.041961875
180	0x3d74846e	0.059696607
181	0xbcf15d9e	-0.029463585
182	0xbdda31c6	-0.10654025
183	0xbd6dbaa9	-0.05803934
184	0x3d3bf402	0.045887
185	0xbd0e175e	-0.034690253
186	0xbde8bfef	-0.113647334
187	0xbdae5159	-0.085116096
188	0x3c2135a9	0.009839454
189	0x3d2e5ed3	0.0425709
190	0xbcf11868	-0.029430583
191	0xbdcd24ef	-0.1001681
192	0xbda8ee6c	-0.082486
193	0x3d37bcf9	0.044857953
194	0xbd82d97c	-0.06389138
195	0xbd57c9d4	-0.052682713
196	0x3d4053cc	0.046954915
197	0x3ad2c55a	0.0016080544
198	0x3c2d8bc1	0.010592402
199	0x3da28306	0.07935147
200	0xbcee5198	-0.029091641
201	0xbb866c09	-0.0041022343
202	0xbdc769aa	-0.09736951
203	0x3d683102	0.056687362
204	0xbde8de1d	-0.1137049
205	0x3dac108c	0.084015936
206	0x3da5bca5	0.08092622
207	0xbcb91696	-0.022593778
208	0xbd9c81fb	-0.07641979
209	0xbb3ab186	-0.002848716
210	0xbd1534f5	-0.036427457
211	0x3cddf818	0.02709584
212	0x3d4cb9e4	0.049981967
213	0x3be10c71	0.006867938
214	0x3ce889dc	0.028386049
215	0xbde25170	-0.11050689
216	0xbd98425f	-0.07434534
217	0xbc7eefee	-0.015560133
218	0xbd6f9c2d	-0.05849855
219	0x3d2934d2	0.04131014
220	0x3dafef93	0.08590617
221	0xbc90091d	-0.01758247
222	0xbd5a02ef	-0.053225454
223	0xbd4393cc	-0.047748372
224	0x3d5f12d6	0.054461323
225	0x3c098695	0.008393903
226	0x3d09f4ed	0.033680845
227	0xbdff8b04	-0.12477687
228	0xbd0eb148	-0.034837037
229	0xbd9b754d	-0.07590733
230	0x3cf88ced	0.030340636
231	0x3c7dc75e	0.015489427
232	0xbd2f9a81	-0.042871956
233	0xbdcd788b	-0.10032757
234	0xbd1a61a5	-0.037690777
235	0x3d30f42f	0.04320162
236	0xbb1b24c6	-0.0023673042
237	0xbb6fe987	-0.00366077
238	0xbdd540a1	-0.104127176
239	0x3d1094d3	0.03529818
240	0x3d71c411	0.059024874
241	0xbd9172a0	-0.07101941
242	0xbdbf5f2e	-0.09344326
243	0xbd1036e3	-0.035208594
244	0xbdc498cf	-0.095994584
245	0xbd941e32	-0.07232322
246	0xbc2e8bf6	-0.0106534865
247	0xbd2c7d53	-0.042111706
248	0xbc522850	-0.012826994
249	0xbb7443ed	-0.0037271932
250	0x3d4b7c90	0.04967934
251	0x3c7a422e	0.0152745675
252	0xbdaa2ad2	-0.083089486
253	0xbd91e1cd	-0.07123146
254	0x3d48da8a	0.04903654
255	0xbdf75345	-0.12076429

rnn.bias_ih_l0 f4 [128]
0	0x3d46c3fc	0.04852675
1	0xbd786171	-0.060639802
2	0xbc0dd9ef	-0.008657916
3	0x3dae9278	0.085240304
4	0x3dc9be2f	0.09850728
5	0xbd17f7cb	-0.03710155
6	0x3b73c1f8	0.0037194472
7	0xbc8a3a03	-0.016873365
8	0xbc0c7822	-0.008573564
9	0x3c94f135	0.018181423
10	0x3db7c5a0	0.08973241
11	0x3c9822b9	0.018571245
12	0xbd2a1553	-0.041524243
13	0xbce7947e	-0.028269049
14	0x3b3263dc	0.0027220165
15	0x3d9a2089	0.07525737
16	0x3cb8f449	0.022577422
17	0xbd39a926	-0.04532733
18	0x3d52ffba	0.05151341
19	0xbd9bcfc9	-0.07607991
20	0x3da871cc	0.0822483
21	0x374d1d0b	1.2225714e-05
22	0x3d3d39d4	0.046197727
23	0xbd967c71	-0.07347954
24	0x3d5c0bc4	0.053722158
25	0x3d244334	0.040103152
26	0x3dc64cf3	0.09682646
27	0x3d7f9be7	0.06240454
28	0x3d383eec	0.044981882
29	0x3d813517	0.06308954
30	0x3d798052	0.06091339
31	0xbd7ad683	-0.06123973
32	0xbc5488a8	-0.0129720345
33	0x3d1ab7a3	0.037772786
34	0x3cb8e593	0.022570407
35	0xbd050bd3	-0.03248198
36	0x3cec947c	0.028879397
37	0xbc2c29d7	-0.010508022
38	0xbd7e12b8	-0.06202957
39	0xbdbfa32d	-0.09357295
40	0x3dbb6879	0.09150786
41	0xbdaf86f3	-0.085706614
42	0x3db33063	0.087494634
43	0x3db90e6b	0.09035953
44	0x3d42fa40	0.04760194
45	0x3d9e5e77	0.077328615
46	0xbda562a6	-0.08075456
47	0x3da442c1	0.08020545
48	0xbc6ef3a7	-0.014584458
49	0x3cddc846	0.027073037
50	0x3cfbfdf2	0.030760739
51	0x3bb790c4	0.005601974
52	0xbd3dbf63	-0.0463251
53	0xbdb012b5	-0.08597318
54	0x3d94f34c	0.07272968
55	0x3d9fc355	0.078009285
56	0xbd90cc3e	-0.07070206
57	0x3d3c3f93	0.045959067
58	0x3da8df5f	0.0824573
59	0x3d87d8f3	0.06633177
60	0x3c77c5e0	0.015122861
61	0xbd7d7563	-0.061879527
62	0x3dc27afe	0.09496115
63	0x3d6e2a58	0.05814585
64	0x3df6d564	0.1205242
65	0xbd3d5719	-0.04622564
66	0x3dce6a48	0.10078865
67	0x3c0e3a84	0.008680943
68	0xbd2fa0f8	-0.04287812
69	0x3d28e874	0.04123731
70	0x3cb54d4d	0.022131586
71	0xbd867e37	-0.06567042
72	0xbd3326df	-0.043738242
73	0x3cebe91b	0.028797677
74	0x3da33471	0.07968987
75	0x3c1396b9	0.009008103
76	0xbd029bf5	-0.031887013
77	0xbd08c4bb	-0.03339074
78	0x3dee1e29	0.11626846
79	0x3dbfd485	0.09366707
80	0x3c829a0c	0.015942596
81	0x3d1875f0	0.03722185
82	0xbd8f5e83	-0.070004486
83	0xbda93373	-0.08261766
84	0xbd9c5a67	-0.076344304
85	0x3b879521	0.0041376506
86	0xbd89eb61	-0.06734348
87	0x3dded447	0.108803324
88	0x3d8901b6	0.066897795
89	0xbce84c52	-0.028356705
90	0x3d17a258	0.037020057
91	0xbd870448	-0.065926135
92	0xbd1c2d1d	-0.03812896
93	0x3d775a38	0.060388774
94	0xbcaa818a	-0.020813722
95	0x3d9f231c	0.077703685
96	0xbcecfa65	-0.028927991
97	0xbdca2161	-0.09869648
98	0xbdc486f2	-0.09596051
99	0x3c6958a2	0.014242323
100	0xbb6950a2	-0.003560104
101	0x3c4528bb	0.012033637
102	0xba56a37f	-0.0008187815
103	0xbd41f5b8	-0.047353476
104	0xbd96fbfb	-0.0737228
105	0x3d88817d	0.06665323
106	0xbdaef011	-0.08541883
107	0x3d05cc2e	0.032665424
108	0xbd72fe66	-0.059324645
109	0xbb241de1	-0.0025042223
110	0x3d34a04b	0.04409818
111	0xbda12f02	-0.07870294
112	0xbcc6af70	-0.024253577
113	0xbd9ba714	-0.07600227
114	0x3d2b0bb7	0.04175922
115	0x3dba2414	0.090889126
116	0xbd88311a	-0.066499904
117	0x3c8ef88f	0.017452506
118	0x3c80ff9c	0.015746884
119	0xbdd9d216	-0.10635774
120	0x3d44da38	0.048059672
121	0x3d2196a7	0.039450314
122	0x3d327894	0.043572024
123	0x3d1e00bb	0.038574915
124	0xbd9be1df	-0.07611441
125	0xbd25abed	-0.040447164
126	0xbcc77039	-0.024345504
127	0x3dab74d9	0.08371896

rnn.bias_hh_l0 f4 [128]
0	0x3d2c08bd	0.04200052
1	0xbd8c227a	-0.068425134
2	0x3db27332	0.08713378
3	0x3c23ca0f	0.009996905
4	0xbd3b56b8	-0.045737
5	0xbd8abd5c	-0.06774399
6	0xbcc40249	-0.02392687
7	0x3da81b5f	0.082083456
8	0xbd10d41d	-0.035358537
9	0x3d31563b	0.043295126
10	0xbc4d4208	-0.01252795
11	0x3d4b1fd2	0.049590893
12	0xbd488b63	-0.048961055
13	0xbdd11bd8	-0.10210389
14	0x3c1c5f77	0.009544245
15	0xbd5c5421	-0.05379117
16	0x3cdc52b9	0.026894914
17	0x3c94c6a3	0.018161124
18	0x3d0aec7e	0.033916943
19	0xbdc3312f	-0.095308654
20	0xbc744942	-0.014910044
21	0xbdba9d8c	-0.09112081
22	0xbcc5e66f	-0.02415773
23	0xbd7370ab	-0.05943362
24	0xbd2f02cf	-0.042727288
25	0xbbc60ecf	-0.006044246
26	0x3d53db3d	0.051722754
27	0x3b9cb70a	0.004782562
28	0x3d61cd85	0.05512764
29	0x3c1d4dc2	0.009601058
30	0x3d04e3cc	0.032443807
31	0x3dc837e2	0.09776284
32	0x3d70a3f8	0.058750123
33	0xbd4d8a31	-0.050180618
34	0x3bf3136d	0.007418087
35	0x3daa187d	0.08305452
36	0xbdc12d58	-0.09432477
37	0xbbb3f4d4	-0.0054918323
38	0x3b838e58	0.0040147714
39	0xbdc9e08d	-0.09857283
40	0xbd0fdc04	-0.035121933
41	0xbd83b04a	-0.06430109
42	0x3d1ba2a9	0.03799692
43	0xbd146f33	-0.03623886
44	0x3cd640ce	0.026153948
45	0x3d5f8e78	0.05457923
46	0xbda04453	-0.07825532
47	0x3d63a918	0.055581182
48	0x3d28c803	0.04120637
49	0x3be7e7d4	0.0070771966
50	0x3dbb5045	0.091461696
51	0x3d9226b9	0.07136292
52	0x3dcfbf42	0.101439014
53	0x3c2a569f	0.010396629
54	0xba9b7896	-0.0011861499
55	0xbda18113	-0.07885947
56	0x3d85507a	0.0650949
57	0x3d40672e	0.0469734
58	0x3dacddcb	0.08440741
59	0x3dd9f3ff	0.10642242
60	0x3d7433d0	0.059619725
61	0x3dac7a6d	0.08421788
62	0x3d96dfe0	0.073669195
63	0xbb2704d3	-0.0025485053
64	0x3d8f83c5	0.07007555
65	0xbd0fd08d	-0.035111
66	0xbcc9f1db	-0.024651458
67	0x3d45c29e	0.048281305
68	0x3d911234	0.0708355
69	0xbce43e7d	-0.027861828
70	0xbc63a378	-0.013893954
71	0xbc474fe7	-0.012165046
72	0xbdaee860	-0.08540416
73	0x3ca0137e	0.019540545
74	0x3c2739a0	0.01020661
75	0x3d5685e5	0.052373786
76	0x3d7a6f07	0.06114104
77	0xbda57be0	-0.08080268
78	0xbceef791	-0.029170783
79	0x3d8ec385	0.06970886
80	0xbdd7dd21	-0.10540224
81	0xbcc79d61	-0.024367036
82	0xbd3e83ca	-0.046512403
83	0xbd426287	-0.047457244
84	0xbd811dc4	-0.063045055
85	0x3d1cdd2d	0.038296867
86	0xbdaeb2e9	-0.08530218
87	0x3dccb766	0.09995918
88	0x3dbe2833	0.09285011
89	0x3d224fed	0.039627004
90	0x3d4ffb7a	0.050776936
91	0xbd18c0df	-0.03729331
92	0x3d85378c	0.06504735
93	0xbd426407	-0.047458675
94	0xbda4dbd4	-0.080497414
95	0x3db7b8f5	0.08970825
96	0x3deea4fa	0.116525605
97	0xbd4dffee	-0.0502929
98	0xbd3af828	-0.045646816
99	0x3c33e078	0.0109788105
100	0x3c8eae36	0.017417055
101	0xbd6d546b	-0.057941835
102	0x3c797190	0.015224829
103	0xbdb01286	-0.08597283
104	0xbdd335c6	-0.10312991
105	0x3d869b1b	0.06572553
106	0x3d1f9433	0.038959693
107	0x3d4e7d18	0.050412267
108	0xbd6bc4f9	-0.057560895
109	0xbda17ef9	-0.07885546
110	0xbc9f23fb	-0.019426337
111	0x3d48c10e	0.049012236
112	0xbd51bf99	-0.051208112
113	0xbd836f1a	-0.06417675
114	0x3db09b7b	0.086234055
115	0x3d902db1	0.07039965
116	0x3d1da68e	0.038488917
117	0x3d01225a	0.0315269
118	0x3d8befac	0.06832823
119	0x3c69f7cb	0.01428027
120	0x3d8061b8	0.06268638
121	0x3d9b2134	0.07574692
122	0x3cf88f64	0.030341811
123	0x3db78738	0.08961338
124	0xbc57ec24	-0.013178859
125	0xbd520dca	-0.05128268
126	0x3cadadef	0.021201102
127	0x3d33da2a	0.04390923

rnn.weight_ih_l1 f4 [128, 128]
0	0x3ddcba74	0.107777506
1	0xbda12836	-0.07868998
2	0xbc89cde2	-0.016821805
3	0xbd578f6a	-0.052627005
4	0x3cdb94af	0.026804296
5	0x3db802a1	0.089848764
6	0xbd1426b7	-0.036169734
7	0x3d837633	0.06419029
8	0xbd9d8625	-0.07691602
9	0x3c026ff0	0.007961258
10	0xbc43be2c	-0.011947196
11	0x3d8e9c53	0.0696341
12	0x3d7e2d9c	0.062055215
13	0xbd084a35	-0.033273894
14	0xbc62f8fc	-0.013853308
15	0xbb5fa14e	-0.0034123245
16	0xbc88f740	-0.01671946
17	0xbe6dd3fb	-0.23225395
18	0x3d918ce2	0.071069494
19	0xbce1fd11	-0.027586492
20	0x3c030d84	0.007998828
21	0xbc468e01	-0.012118817
22	0x3cd87118	0.026421115
23	0xbd5ab9c1	-0.053399805
24	0x3ca4cacd	0.020116234
25	0x3abcdaea	0.0014408503
26	0x3da14fe3	0.07876565
27	0xbcf068d4	-0.029346861
28	0x3d758c59	0.0599483
29	0xbaaba1a2	-0.0013094435
30	0xbcbe022d	-0.023194397
31	0x3deb4351	0.11487449
32	0x3d06397b	0.03276966
33	0x3d2db296	0.04240664
34	0xbd59e1bf	-0.053193804
35	0xbd2130d9	-0.039353225
36	0xbd84a5f9	-0.06476969
37	0xbbcd5303	-0.0062659993
38	0x3d9980b7	0.074952535
39	0x3d91baba	0.071156934
40	0x3d56b7f7	0.052421536
41	0x3c4e3536	0.012585929
42	0xbdc26edb	-0.094938
43	0x3c8964fd	0.016771788
44	0x3d5a9381	0.053363327
45	0xbdfe101c	-0.12405416
46	0x3d571ed3	0.05251963
47	0x381a0079	3.67169e-05
48	0xbea3f878	-0.32025504
49	0xbc3a279e	-0.011361985
50	0xbd9996d9	-0.07499475
51	0xbd803497	-0.06260031
52	0xbd16a1c7	-0.036775377
53	0xbd344cac	-0.044018432
54	0xbd8f1481	-0.06986333
55	0x3c5b988a	0.013403067
56	0xbd803a2b	-0.06261095
57	0x3ea87ee5	0.32909313
58	0x3d13d0fd	0.03608798
59	0xbb21a66f	-0.0024665853
60	0x3dcf6709	0.10127074
61	0x3d06c6a9	0.0329043
62	0x3da3fda7	0.08007365
63	0x3d534a61	0.051584605
64	0x3c23d4ce	0.009999467
65	0xbd2b68af	-0.04184788
66	0xbcf8cd9f	-0.030371485
67	0x3d998d9e	0.074977145
68	0xbd921472	-0.07132806
69	0x3da33adf	0.07970213
70	0xbd764962	-0.060128577
71	0x3d056c90	0.032574236
72	0xbde3df86	-0.11126618
73	0x3d8b45a4	0.06800392
74	0x3dc38e31	0.09548605
75	0xbdaaf585	-0.083476104
76	0xbc438b6f	-0.011935099
77	0xbdbea7af	-0.09309327
78	0x3d329187	0.043595817
79	0x3d598637	0.053106513
80	0xbd0327bd	-0.03202032
81	0xbd76a377	-0.060214486
82	0x3cd2f557	0.025751753
83	0x3ddcc54e	0.107798204
84	0xbd36c1ea	-0.044618525
85	0x3d4a17e5	0.049339194
86	0x3da1ea2b	0.07905992
87	0xbdb214d6	-0.086953804
88	0x3dc8e101	0.09808541
89	0x3dad682b	0.08467134
90	0x3ddc91be	0.107699856
91	0x3bddef52	0.006772914
92	0xbca5dd3e	-0.020247098
93	0xbc90e425	-0.017686913
94	0x3d66bca4	0.056332245
95	0xbda5a783	-0.08088591
96	0xbe8889a1	-0.26667503
97	0xbd988917	-0.07448023
98	0x3de43b76	0.11144154
99	0xbd7dd949	-0.061974797
100	0x3d7b03c8	0.061282903
101	0x3c949b18	0.01814036
102	0xbdb7fc84	-0.089837104
103	0xbd3a58c2	-0.045494802
104	0xbb6f4058	-0.0036506858
105	0x3dbaf619	0.09128971
106	0xbda2b329	-0.07944328
107	0x3c5c3f51	0.01344283
108	0xbc51a42e	-0.012795491
109	0x3da125d0	0.0786854
110	0x3e25614a	0.16150394
111	0x3d6e1a4f	0.05813056
112	0x3e0de585	0.13857086
113	0xbd04f0eb	-0.03245632
114	0xbd10877d	-0.03528546
115	0x3d8fcb9b	0.070212565
116	0x3d96e2ed	0.073675014
117	0xbe138a2b	-0.14408176
118	0x3b79afb3	0.003809911
119	0x3b4c98d6	0.0031219027
120	0xbc8d5f24	-0.01725728
121	0xbcd88914	-0.026432551
122	0xbdd48d2a	-0.103784874
123	0xbd848492	-0.06470598
124	0xbce644dd	-0.028109008
125	0x3db3c6a3	0.08778121
126	0x3e57df89	0.21081366
127	0xbd9f6100	-0.07782173
128	0xbd912c6e	-0.070885524
129	0x3d27ff84	0.041015163
130	0xbca135fa	-0.019679058
131	0xbd9f5c23	-0.077812456
132	0xbd844a0c	-0.06459436
133	0xbdb2a0b9	-0.08722062
134	0x3dace739	0.0844254
135	0x3d961a08	0.07329184
136	0xbd8f0082	-0.06982519
137	0xbdad255f	-0.084543936
138	0xbd973da7	-0.07384806
139	0x3d8faf4a	0.070158556
140	0x3d5e9460	0.05434072
141	0xbd17280b	-0.036903422
142	0x3bf59988	0.007495109
143	0xbce6b8d4	-0.028164305
144	0xbcccbf9e	-0.024993714
145	0xbb62b917	-0.0034595185
146	0xbb79bc87	-0.0038106756
147	0x3d731217	0.059343424
148	0xbcbcf54a	-0.023066182
149	0x3d8dafc6	0.06918292
150	0x3da59c63	0.08086469
151	0xbcf17489	-0.029474514
152	0x3daf2e41	0.08553744
153	0x3cae5f6b	0.021285733
154	0x3ce22a2d	0.027608002
155	0x3d4993b3	0.049213123
156	0x3d925090	0.07144272
157	0xbdbb7811	-0.0915376
158	0xbcd0ac01	-0.025472643
159	0x3d5836aa	0.052786507
160	0xbcb51b33	-0.022107696
161	0xbc8e7e4e	-0.017394211
162	0x3ce6aafd	0.028157705
163	0x3d932a99	0.07185859
164	0x3cb07655	0.0215408
165	0xbd5335be	-0.051564924
166	0x3bf1b662	0.007376478
167	0xbdac734e	-0.0842043
168	0xbd976e45	-0.07394079
169	0x3d0f792e	0.035027675
170	0xbb2a87e6	-0.0026020943
171	0x3c9a0e32	0.018805597
172	0x3d7372e4	0.05943574
173	0xbd9080a2	-0.07055785
174	0x3cbbd3ec	0.0229282
175	0x3d212854	0.0393451
176	0x3c9f1de1	0.019423427
177	0x3d58fa6c	0.052973196
178	0xbd90e8f0	-0.07075679
179	0x3ca17c4e	0.019712593
180	0xbcab66e4	-0.020923086
181	0x3d5b8e5c	0.05360256
182	0xbd61937a	-0.055072285
183	0x3b88e451	0.004177608
184	0x3dafb5fa	0.08579631
185	0xbccbbd8b	-0.024870655
186	0xbd101d8c	-0.035184428
187	0x3d4e8bfc	0.05042647
188	0xbd775016	-0.06037911
189	0x3d38b8fc	0.04509829
190	0x3d570b42	0.05250097
191	0xbd0bcd13	-0.03413112
192	0xbcc99050	-0.024604946
193	0x3bca659a	0.0061766626
194	0x3d3d16a9	0.04616419
195	0xbd3d0e7e	-0.0461564
196	0x3d1c32c8	0.038134366
197	0xbd20c959	-0.03925452
198	0xbd8e017a	-0.069338754
199	0x3d3a26e0	0.04544723
200	0xbd5fc370	-0.054629743
201	0x3d51708d	0.051132727
202	0x3d8554a2	0.06510283
203	0x3d700795	0.05860098
204	0xbc51d8e7	-0.012808061
205	0x3ca9bb9f	0.020719348
206	0x3c67400a	0.014114389
207	0xbb998d74	-0.004686052
208	0xbdaff86f	-0.08592307
209	0xbd464e92	-0.048414774
210	0xbd406cea	-0.04697887
211	0x3bf6fd75	0.0075375387
212	0x3be10ecb	0.0068682185
213	0x3c024954	0.007952053
214	0x3c903fe1	0.017608585
215	0x3cf328e1	0.029682579
216	0x3cc04b67	0.023473455
217	0xbd0232f3	-0.03178687
218	0x3d894ef8	0.06704515
219	0xbcc68347	-0.02423252
220	0x3d61c510	0.055119574
221	0x3d06ab45	0.03287818
222	0x3d9b86f8	0.075941026
223	0xbd11bb96	-0.035579287
224	0xbd862ba1	-0.0655129
225	0xbdae549b	-0.08512231
226	0x3ae30c9b	0.0017322482
227	0x3c6b83df	0.014374702
228	0xbdb94f59	-0.090483375
229	0x3d3d8ba0	0.046275735
230	0x3d08169d	0.03322469
231	0xbd10e2fb	-0.035372715
232	0xbd9cbb59	-0.07652921
233	0xbdbaa2b3	-0.09113064
234	0x3d6c6b24	0.057719365
235	0xbd56df4c	-0.052459046
236	0x3d2fef66	0.042952918
237	0xbd56dfef	-0.052459653
238	0xba9f3274	-0.0012145774
239	0xbc65d635	-0.014028122
240	0xb957bf90	-0.0002057536
241	0x3c982398	0.01857166
242	0xbca374a0	-0.019953072
243	0x3d5657d9	0.05232987
244	0x3d914e42	0.070950046
245	0xbcef0f0d	-0.029181981
246	0xbdbebbc3	-0.093131565
247	0x3d211aaf	0.039332088
248	0xbcef5e74	-0.029219843
249	0xbd8cd2fd	-0.0687618
250	0xbdc583fd	-0.096443154
251	0x3d949bf8	0.07256311
252	0xbda09215	-0.07840363
253	0xbce865d8	-0.028368875
254	0xbcc594bf	-0.02411878
255	0x3c24190d	0.010015738

rnn.weight_hh_l1 f4 [128, 128]
0	0x3d042b4e	0.03226786
1	0xbc3f0bc9	-0.011660525
2	0x3d180181	0.03711081
3	0xbd5153b7	-0.051105227
4	0x3da2c9d8	0.07948655
5	0xbd342e70	-0.0439896
6	0x3dafb945	0.08580259
7	0x3c74da34	0.014944602
8	0xbcf80b0f	-0.03027871
9	0xbb8c7168	-0.00428598
10	0x3d9a5fb3	0.075377844
11	0x3dc9d796	0.09855573
12	0xbd03efc9	-0.0322111
13	0x3cb23355	0.021752993
14	0x3d3311c7	0.043718126
15	0xbd36055e	-0.044438712
16	0x3d960cd7	0.07326668
17	0x3b66b953	0.0035205677
18	0x3daac363	0.08338048
19	0x3d0e1621	0.034689073
20	0xbc9c51c0	-0.01908195
21	0x3d3de9a0	0.04636538
22	0xbd760e3d	-0.060072172
23	0x3e30dcda	0.17271748
24	0x3bba49a4	0.005685048
25	0xbb2bc42e	-0.0026209462
26	0xbce2d775	-0.027690629
27	0xbbf3248a	-0.0074201273
28	0x3d932ed4	0.07186666
29	0x3d5de2b7	0.05417129
30	0xbba180bd	-0.004928677
31	0x3d295051	0.04133636
32	0x3cd7c900	0.026340961
33	0xbcf3e50c	-0.029772304
34	0x3d726d37	0.059186187
35	0x3d925b3f	0.0714631
36	0xbd35301e	-0.04423534
37	0x3d11fbaa	0.035640396
38	0x3c83842e	0.01605424
39	0xbcae56d3	-0.021281635
40	0x3d0b34bc	0.03398584
41	0x3d38b8d1	0.04509813
42	0x3d9ee7ca	0.07759054
43	0xbcbe237c	-0.02321028
44	0xbd134f79	-0.035964463
45	0xbd0ef8ac	-0.03490512
46	0x3d1ea46f	0.038731035
47	0x3cbfca31	0.023411842
48	0x3d18f061	0.03733862
49	0xbc702ac0	-0.01465863
50	0x3b86a189	0.004108612
51	0x3d76ad8d	0.060224105
52	0x3d65154e	0.05592852
53	0xbd49772a	-0.04918591
54	0xbd101324	-0.035174504
55	0x3c6b9ec6	0.014381116
56	0xbd59230c	-0.05301194
57	0xbd900f7a	-0.07034202
58	0x3d17dec0	0.037077665
59	0xbceb6930	-0.02873668
60	0x3c0e30e5	0.00867865
61	0x3cd263f3	0.025682425
62	0x3c6e52f7	0.014546148
63	0xbdb5a6d1	-0.08869708
64	0xbd6263b0	-0.05527085
65	0x3d8400fc	0.064455
66	0x3dae6661	0.08515621
67	0x3e05a7bb	0.13052265
68	0x3ca2d6dd	0.019877845
69	0xbd3376ee	-0.043814592
70	0x3d4ffe2d	0.05077951
71	0x3c8da678	0.017291293
72	0xba32c01b	-0.0006818787
73	0xbdf0d87f	-0.11760043
74	0xbd56b878	-0.052422017
75	0x3d334cda	0.043774463
76	0xbd0c3dc5	-0.034238596
77	0xbd416115	-0.047211725
78	0xbd4a7d60	-0.049435973
79	0x3cdda426	0.027055811
80	0x3d26c0e7	0.04071131
81	0xbd7abf15	-0.061217386
82	0xbd2c106b	-0.042007845
83	0xbd46145f	-0.04835927
84	0x3d9a08ac	0.07521185
85	0xbd606b2d	-0.05478971
86	0x3d0b143c	0.033954844
87	0x3d8714bb	0.06595751
88	0xbe318600	-0.17336273
89	0x3d4f0570	0.050542295
90	0x3cfee12f	0.031113235
91	0x3d1004ee	0.03516095
92	0x3d24ec71	0.04026455
93	0x3d2aa77b	0.041663628
94	0xbd92999a	-0.071582034
95	0xbd9c1bb7	-0.07622474
96	0x3d1aa421	0.03775418
97	0x3db029f1	0.0860175
98	0x3db37999	0.08763427
99	0x3d5ba11d	0.053620446
100	0xbd47b377	-0.048755135
101	0xbc9cf9fc	-0.01916217
102	0x3dae9431	0.08524359
103	0x3db88e00	0.09011459
104	0xbcb4a8a3	-0.022053069
105	0x3b3c21c8	0.0028706659
106	0x3da7dbd7	0.08196228
107	0x3d9767fa	0.07392879
108	0x3d171a69	0.03689042
109	0x3d26470e	0.040595107
110	0xbd6c3880	-0.05767107
111	0xbd96673c	-0.07343909
112	0xbd83ec73	-0.064415835
113	0x3d4323bd	0.047641505
114	0x3d13ccef	0.03608411
115	0x3cac698a	0.021046419
116	0x3de7e1b1	0.11322344
117	0xbd871f85	-0.06597809
118	0xbb2e8bb0	-0.0026633553
119	0x3d837ec9	0.06420667
120	0x3d924e01	0.07143784
121	0xbd0ddeb6	-0.03463622
122	0xbd844639	-0.064587064
123	0x3dd60d22	0.10451724
124	0xbd3c5089	-0.04597524
125	0xbc9de803	-0.01927567
126	0xbd11f77e	-0.035636418
127	0x3d89013a	0.06689687
128	0x3d3d9370	0.046283185
129	0x3c65a018	0.01401522
130	0x3c170df9	0.00921964
131	0xbd522543	-0.051305067
132	0xbd4f57b9	-0.05062077
133	0xbc8e60b6	-0.0173801
134	0x3c084fef	0.008319839
135	0x3d7bd741	0.06148458
136	0x3db32ad6	0.08748405
137	0x3d8f5b73	0.069998644
138	0x3d8a07f0	0.06739795
139	0x3d6d64b5	0.05795737
140	0x3d1cd0a9	0.03828493
141	0xbc2c5e58	-0.01052054
142	0xbdab6d88	-0.08370501
143	0x3c6de5a4	0.014520083
144	0xbbe143e9	-0.0068745506
145	0xbd278422	-0.040897496
146	0x3daae541	0.08344508
147	0x3c9a0035	0.018798927
148	0xbd6ccb73	-0.05781121
149	0x3d13c5ce	0.036077313
150	0x3d600bea	0.054698862
151	0x3d5e2ce5	0.054242034
152	0xbc6137b8	-0.013746195
153	0x3c9ce90f	0.0191541
154	0xbd480971	-0.04883713
155	0x3da266f4	0.07929793
156	0xbd279842	-0.04091669
157	0x3d153c0a	0.03643421
158	0xbc14bd9c	-0.0090784095
159	0xbb99ae92	-0.00469
160	0x3d8e8db6	0.06960623
161	0x3da626b3	0.0811285
162	0xbd63fe35	-0.055662353
163	0xbd5c35d5	-0.053762276
164	0x3d8d78ee	0.06907831
165	0xbd0baed8	-0.03410229
166	0xbc94d021	-0.01816565
167	0x3d87b329	0.06625969
168	0xbd8efb44	-0.06981519
169	0x3d01f4ab	0.031727474
170	0x3c9431a1	0.018090071
171	0xbcf87047	-0.030326976
172	0xbb79ff3e	-0.003814652
173	0x3d95cdba	0.0731463
174	0xbd537cab	-0.051632565
175	0xbd644f26	-0.055739544
176	0xbd997a8f	-0.07494079
177	0x3d15f665	0.036611933
178	0x3d8a9b47	0.06767898
179	0xbda95049	-0.08267266
180	0xbdb7465a	-0.08948965
181	0x3db18803	0.0866852
182	0xbd9be69d	-0.07612345
183	0xbdbd0e9b	-0.092313014
184	0x3d6529a5	0.05594792
185	0xbc93fad6	-0.018063944
186	0xbcee7063	-0.029106325
187	0xbcbb9725	-0.02289922
188	0xbd6c7397	-0.057727423
189	0xbd908601	-0.07056809
190	0xbd837cc8	-0.064202845
191	0xbd1fe938	-0.039040774
192	0xbd8b8a4b	-0.06813487
193	0xbc69428c	-0.014237057
194	0x3cb720f1	0.022354575
195	0x3d56bcc2	0.052426107
196	0xbc35fdca	-0.011107871
197	0x3d250cf4	0.040295556
198	0xbc165b50	-0.009177044
199	0xbd1259cf	-0.03573018
200	0xbd75e734	-0.060034946
201	0xbd68a7d2	-0.05680067
202	0xbd18b88a	-0.037285365
203	0x3daff736	0.085920736
204	0xbdb4bdff	-0.088253014
205	0x3d6aab90	0.05729252
206	0xbda4c425	-0.08045224
207	0x3db36835	0.0876011
208	0xbbfb375c	-0.0076665115
209	0xbda4ca9b	-0.080464564
210	0xbd95e94f	-0.07319891
211	0x3d3d1b64	0.0461687
212	0x3c9aea59	0.018910574
213	0xbda9ee64	-0.082974225
214	0xbd66b492	-0.05632455
215	0x3d337e9f	0.043821927
216	0x3cd7ebcd	0.026357556
217	0xbd6a1a07	-0.057153728
218	0x3c0ee90d	0.008722556
219	0xbd8c031c	-0.068365306
220	0xbd2d20c7	-0.042267587
221	0x3cbe64b5	0.02324138
222	0x3cbe54d7	0.023233814
223	0xbd66f4ef	-0.05638593
224	0x3d2ed20b	0.04268078
225	0x3cd5a700	0.026080608
226	0xbd509652	-0.050924607
227	0xbd8b51da	-0.06802721
228	0x3c9ceda8	0.019156292
229	0x3d301998	0.042993158
230	0xbceb5ae6	-0.028729867
231	0x3acc4499	0.0015584409
232	0x3d083869	0.033256922
233	0xbd500bac	-0.05079238
234	0xbb682acc	-0.00354259
235	0xbcc4fdba	-0.024046768
236	0x3d30889e	0.04309904
237	0xbd9e12fc	-0.07718465
238	0x3d07c3b4	0.03314562
239	0x3d6be929	0.057595406
240	0xb9b4ad45	-0.0003446137
241	0xba853fb9	-0.0010166086
242	0xbd9ad8e3	-0.07560899
243	0xbd90e5fb	-0.07075115
244	0xbdb375f8	-0.08762735
245	0x3d872612	0.06599058
246	0xbd43a673	-0.04776616
247	0x3d628867	0.055305865
248	0xbb511c94	-0.0031907903
249	0x3d91a081	0.07110692
250	0x3c5a109f	0.013309627
251	0x3d7fafc8	0.062423497
252	0xbd6e1c6c	-0.058132574
253	0x3d8b6e4d	0.068081476
254	0x3b59c192	0.003322695
255	0xbd324ffc	-0.04353331

rnn.bias_ih_l1 f4 [128]
0	0x3cad5d6d	0.021162713
1	0xbd0bb496	-0.034107767
2	0x3d1b9f36	0.037993632
3	0x3d987293	0.07443728
4	0x3dc5aac3	0.09651711
5	0xbcbecad3	-0.023290073
6	0xb8e19efb	-0.000107584485
7	0xbc084e74	-0.008319486
8	0xbd7cadb0	-0.06168908
9	0xbdbe92a4	-0.09305313
10	0x3d9ddfd3	0.07708707
11	0xbd668086	-0.056274913
12	0x3d71608a	0.058929957
13	0x3cf3088d	0.029667163
14	0xbbc0d7fe	-0.0058851233
15	0xbd95bb74	-0.073111445
16	0xbb85b85c	-0.0040808152
17	0x3d8fbd2a	0.07018502
18	0x3d5716ee	0.0525121
19	0xbdc63c50	-0.096794724
20	0x3d80a08e	0.062806234
21	0xbd8010fc	-0.062532395
22	0xbd3a94e1	-0.04555214
23	0x3d44e956	0.04807409
24	0xbd996f85	-0.07491974
25	0x3d31a239	0.0433676
26	0x3c4eb1eb	0.012615661
27	0x3c9b80f4	0.018982388
28	0xbdc9dc1b	-0.09856435
29	0xbd8b1272	-0.067906275
30	0x3d344712	0.04401309
31	0xbb19d7e2	-0.0023474623
32	0x3da38d7a	0.07985969
33	0xbc828571	-0.01593277
34	0x3d066564	0.032811537
35	0xbd857ceb	-0.06517967
36	0xbd56ba35	-0.052423675
37	0xbdae4c9b	-0.08510705
38	0xbccafc40	-0.024778485
39	0xbd5e3305	-0.054247875
40	0x3d145c0d	0.0362206
41	0xbd468e51	-0.048475567
42	0x3c138b25	0.009005343
43	0x3d2bb558	0.04192099
44	0xbd9e2fa0	-0.077239275
45	0xbd5cdbf1	-0.05392069
46	0xbc02e74d	-0.007989717
47	0xbd09ec5d	-0.03367268
48	0x3d0956fa	0.033530213
49	0xbda96210	-0.08270657
50	0xbcc52e69	-0.024069982
51	0x3c84c360	0.016206443
52	0x3db079e2	0.08616997
53	0xbbc70f26	-0.006074804
54	0x3d9e0e17	0.07717531
55	0x3d42c60c	0.047552153
56	0xbdba1749	-0.090864725
57	0x3db3dd4a	0.08782442
58	0xbd6b6085	-0.057465095
59	0x3d986fb9	0.074431844
60	0xbc79995b	-0.015234317
61	0xbd5e25e0	-0.05423534
62	0x3d952367	0.07282143
63	0xbdb0484d	-0.0860754
64	0x3cc69fa4	0.024246044
65	0xbda98374	-0.08277026
66	0xbc5dc557	-0.013535819
67	0xbcd97c02	-0.02654839
68	0xbc98f4da	-0.018671442
69	0x3ca730a4	0.020408936
70	0x3d024d7d	0.03181218
71	0x3d579216	0.052629553
72	0xbd974817	-0.07386797
73	0x3d2b342a	0.041797794
74	0x3d334157	0.043763485
75	0x3b71c4ac	0.0036890907
76	0xbd06c80d	-0.032905627
77	0x3d611a00	0.054956436
78	0x3cee427b	0.029084435
79	0xbd8ce7da	-0.0688016
80	0xbcaac07e	-0.02084374
81	0x3d02eef2	0.031966157
82	0xbbff0244	-0.0077822525
83	0xbca71437	-0.020395381
84	0xbde04edb	-0.109525405
85	0xbdcec8e7	-0.10096913
86	0xbd001b76	-0.03127619
87	0xbd6b5a0b	-0.05745892
88	0xbd6cbfca	-0.05780009
89	0x3d79d890	0.060997546
90	0x3dc4c47d	0.0960779
91	0xbcdbbbdf	-0.026822982
92	0xbb618f9b	-0.003441787
93	0x3d6787df	0.05652606
94	0x3c45dedd	0.0120770605
95	0x3dcfd3ee	0.10147844
96	0x3cf8e82b	0.030384144
97	0xbd198614	-0.037481382
98	0x3d90d8bc	0.07072589
99	0x3d122654	0.035681084
100	0x3dcd98ac	0.100388855
101	0x3d8caffb	0.06869503
102	0x3d2406ce	0.040045552
103	0x3d96a9da	0.07356615
104	0x3cb9b9fb	0.02267169
105	0x3cea80ed	0.02862593
106	0x3ce24039	0.027618514
107	0xbd7797fd	-0.06044768
108	0xbd971018	-0.073761165
109	0xbdbbb072	-0.09164514
110	0xbccfbd6c	-0.025358878
111	0x3d0b8674	0.03406377
112	0xbca0cd56	-0.019629162
113	0x3d8430b2	0.064546004
114	0x3ca46829	0.020069199
115	0x3d8b6ef7	0.06808274
116	0xbcd65d69	-0.026167588
117	0x3da51323	0.08060291
118	0x3dcb5283	0.09927847
119	0x3d989ecc	0.07452163
120	0xbdb310a8	-0.08743411
121	0x3d2ca55d	0.04214989
122	0xbd9e7763	-0.07737615
123	0x3cffe683	0.031237846
124	0x3d8fb3c9	0.07016713
125	0xbda0e3c9	-0.078559466
126	0xbd13f1d9	-0.036119316
127	0xbd7df298	-0.061998934

rnn.bias_hh_l1 f4 [128]
0	0xbd943613	-0.07236876
1	0xbdb2bf9d	-0.087279536
2	0x3d8d77a9	0.06907589
3	0x3cda0217	0.026612325
4	0xbcf4264e	-0.029803421
5	0xbc8da425	-0.017290184
6	0x3dc6e9bf	0.09712552
7	0xbcc21081	-0.02368951
8	0x3cb2ebb2	0.021840904
9	0xbd6c98be	-0.057762854
10	0x3b9aa8e0	0.0047198385
11	0xbd1af7d3	-0.037834
12	0xbd1a327a	-0.037645794
13	0xbd92cfb3	-0.07168522
14	0x3d8d6450	0.06903899
15	0x3b66ab5e	0.0035197358
16	0x3caa13a4	0.020761319
17	0x3d65ea56	0.056131683
18	0x3d63c29b	0.055605512
19	0xbd3ceacb	-0.046122354
20	0x3c63d649	0.01390607
21	0x3ad5861f	0.0016290582
22	0xbd5d8c06	-0.054088615
23	0xbd0d5ba0	-0.03451121
24	0xbd173cad	-0.0369231
25	0x3d67f911	0.056634013
26	0xbd8ac697	-0.06776159
27	0xb946e62e	-0.000189685
28	0x3d7dd4b0	0.061970413
29	0xbb03a3a8	-0.002008656
30	0x3c2b2386	0.010445481
31	0x3da2f58e	0.07956992
32	0x3c44fe23	0.012023482
33	0xbd38e938	-0.04514429
34	0x3d87f1d5	0.06637923
35	0x3d0310ee	0.031998567
36	0xbdcd3c6f	-0.100212924
37	0x3ba37b1e	0.004989042
38	0x3d82691e	0.06367706
39	0x3ca00b1a	0.019536544
40	0x3c9b0490	0.018923074
41	0xbda45faa	-0.08026059
42	0x3d7c66fa	0.061621644
43	0xbbd1e973	-0.006406003
44	0x3d6ef6dc	0.058340892
45	0x3d54ca16	0.051950537
46	0xbd4ed693	-0.050497603
47	0x3dbd8e62	0.09255673
48	0x3dbc70c8	0.09201199
49	0xbdcc5d9e	-0.099787936
50	0xbd1fdc1d	-0.039028276
51	0x3d8771cc	0.06613502
52	0x3d4f7aac	0.0506541
53	0xbd10cd74	-0.035352185
54	0xbdbc0b93	-0.09181895
55	0xbd667248	-0.05626133
56	0x3cc66f25	0.02422292
57	0xbc82e3de	-0.015977796
58	0xbd8796de	-0.066205725
59	0x3d19e29d	0.03756963
60	0x3cc905b1	0.024538847
61	0xbca82b6a	-0.020528514
62	0x3db79575	0.089640535
63	0xbc6d9e94	-0.01450314
64	0x3cda2b3d	0.026631946
65	0xbd98bf63	-0.07458379
66	0x3d17f746	0.037101053
67	0x3d091d6d	0.03347533
68	0x3d4b1b71	0.049586717
69	0x3d63be0e	0.055601172
70	0xbd9dc8c3	-0.07704308
71	0xbcbfc27f	-0.023408173
72	0xbd32b9d1	-0.04363424
73	0xbd59d2fc	-0.053179726
74	0x3d8fc0c0	0.07019186
75	0x3d8238c3	0.06358483
76	0x3d318155	0.04333623
77	0x3c89e21f	0.016831456
78	0xbdcd6efe	-0.10030936
79	0xbd93dece	-0.07220231
80	0xbd2ba95d	-0.041909564
81	0x3de64766	0.11244087
82	0xbdb3114e	-0.08743535
83	0xbda8fd95	-0.08251492
84	0xbcd0d732	-0.025493238
85	0xbcad9cf5	-0.021193007
86	0x3dccab21	0.09993578
87	0xbc8ae1c9	-0.016953366
88	0xbd118e4e	-0.035536103
89	0xbd31e7ab	-0.043433826
90	0xbd5e56ba	-0.054281928
91	0xbb07a742	-0.0020699059
92	0x3d44886e	0.047981672
93	0xbda94dad	-0.082667686
94	0xbd97c776	-0.07411091
95	0x3d416cb7	0.04722282
96	0xbd8075d3	-0.06272473
97	0x3bdec36f	0.0067982
98	0x3d381cd9	0.044949386
99	0x3d134a3c	0.035959467
100	0x3dae2026	0.085022256
101	0xbd74d52a	-0.0597736
102	0x3d96197e	0.07329081
103	0x3d9c47c7	0.07630878
104	0xbd639915	-0.055565912
105	0x3c90fa99	0.01769762
106	0xbc8c4de6	-0.017126989
107	0x3da95093	0.082673214
108	0xbd6e7428	-0.058216244
109	0x3d703475	0.058643777
110	0x3dbeea65	0.09322051
111	0xbddea18c	-0.10870656
112	0x3d09a96d	0.033608843
113	0x3d2e89d8	0.042611927
114	0x3d6fcb4b	0.058543485
115	0xbd785540	-0.060628176
116	0xbdab3a70	-0.083607554
117	0x3dce1f2c	0.10064539
118	0xbc491146	-0.012272185
119	0xbce963b8	-0.028489932
120	0xbbdfee87	-0.0068338546
121	0x3ce33369	0.027734475
122	0xbd032cfe	-0.03202533
123	0xbd1e0354	-0.038577393
124	0x3b65f665	0.003508949
125	0x3c549599	0.01297512
126	0xbdca98f3	-0.09892454
127	0x3cb21c1d	0.021741921

fc.weight f4 [68, 128]
0	0x3d1f5c98	0.038906664
1	0xbd3d9034	-0.0462801
2	0xbc79c8d8	-0.015245639
3	0xbde6432c	-0.11243281
4	0xbd9d4eb0	-0.07681024
5	0x3b76944a	0.0037625008
6	0xbbd65309	-0.0065406603
7	0xbd3e12c6	-0.046404622
8	0xbd2ae5d6	-0.041723095
9	0x3d9371fd	0.07199476
10	0xbccbb680	-0.024867296
11	0xbe156c65	-0.1459213
12	0xbc200457	-0.00976666
13	0xbd0e5443	-0.034748327
14	0x3eb3a42a	0.35086185
15	0xbe766041	-0.24060155
16	0x3a5be662	0.0008388517
17	0xbcbc80c7	-0.023010625
18	0xbda2df5e	-0.0795276
19	0xbefc94a3	-0.4933215
20	0xbd878b08	-0.06618315
21	0x3d014f07	0.031569507
22	0x3d353508	0.044240028
23	0x3dbd8e7b	0.092556916
24	0x3cb180c2	0.021667842
25	0x3d8bf2a7	0.06833392
26	0xbd99745f	-0.07492899
27	0x3cbca713	0.023028886
28	0x3c4e5d3d	0.012595472
29	0xbc802ec7	-0.015647305
30	0xbcf19245	-0.029488692
31	0x3cd71d32	0.026259039
32	0xbd63fe73	-0.055662584
33	0x3d871f3b	0.065977536
34	0xbd85226d	-0.06500707
35	0xbd90e617	-0.07075136
36	0xbd352e78	-0.04423377
37	0xbe5fe264	-0.21863705
38	0xbcefe0cc	-0.029281996
39	0xbdbaabb2	-0.091147795
40	0x3bf84788	0.0075768866
41	0x3cdde5b9	0.02708708
42	0x3e9bd385	0.30434814
43	0xbd59a478	-0.053135365
44	0xbe221ad8	-0.15830553
45	0x3ddf1b3c	0.108938664
46	0x3c7cc67b	0.015428181
47	0xbc41d4ab	-0.011830489
48	0xbe0bcc40	-0.13652134
49	0x3dd5c953	0.1043879
50	0x3e0ab5a1	0.13545848
51	0xbdc259c0	-0.09489775
52	0xbd1c0909	-0.038094554
53	0xbb2e1203	-0.0026561029
54	0x3e237725	0.15963419
55	0x3dbf6c38	0.09346813
56	0x3b454563	0.0030101172
57	0x3d269e72	0.04067845
58	0xbdbdd6b5	-0.09269468
59	0xbdcca63e	-0.09992646
60	0x3e0bb161	0.13641883
61	0xbc63c9d4	-0.0139031
62	0xbdd50e7e	-0.10403155
63	0x3c9c6efe	0.019095894
64	0x3c41b8fa	0.011823887
65	0xbccab653	-0.024745142
66	0xbd6f64ce	-0.058445744
67	0x3df9cb5c	0.12196991
68	0xbe19461c	-0.14968151
69	0xbc26da63	-0.010183903
70	0xbd27fa20	-0.041010022
71	0x3d5cfabf	0.053950068
72	0xbcd8da6b	-0.026471337
73	0x3e0d9165	0.13824995
74	0xbd030e7d	-0.03199624
75	0x3d2ad63c	0.041708216
76	0xbd52bf0c	-0.051451728
77	0xbd1de7f5	-0.03855129
78	0x3d991aad	0.07475791
79	0xbc67839d	-0.0141305
80	0xbc92add9	-0.017905163
81	0xbcb20be0	-0.021734178
82	0xbd33eb4c	-0.04392557
83	0xbd8d7767	-0.0690754
84	0xbec6458d	-0.38724938
85	0xbca1f01a	-0.01976781
86	0x3f161123	0.586199
87	0xbc0ef4fa	-0.008725399
88	0xbe8edbcb	-0.27902064
89	0x3d8a09d1	0.067401536
90	0xbd42cbc5	-0.04755761
91	0xbd113934	-0.035454944
92	0xbd04763e	-0.032339327
93	0x3cae1fc5	0.021255383
94	0x3d979b01	0.074026115
95	0xba9ed3b2	-0.0012117533
96	0xbdf26d4d	-0.11837254
97	0xbad83cb2	-0.0016497581
98	0xbe0ae490	-0.13563752
99	0xbe027839	-0.12741174
100	0xbdf74112	-0.12072958
101	0xbbb7e60f	-0.005612142
102	0x3d02722d	0.031847168
103	0xbdc11942	-0.09428646
104	0xbc4059d9	-0.011740171
105	0xbd873d00	-0.06603432
106	0x3cf3690d	0.029713178
107	0x3e07b690	0.13253236
108	0xbdae735d	-0.085180975
109	0x3bb69060	0.00557141
110	0xbd71c07a	-0.05902145
111	0x3db39e36	0.08770411
112	0x3dbabf23	0.09118488
113	0x3d123520	0.035695195
114	0xbda266cb	-0.079297625
115	0x3e39d9de	0.18149516
116	0x3d9a2f66	0.07528572
117	0xbe05916f	-0.1304376
118	0xbd849baa	-0.06475003
119	0x3dac1192	0.08401789
120	0x3da5351a	0.08066769
121	0x3d9c6747	0.07636886
122	0xbccdc024	-0.025116034
123	0xbd1aab2f	-0.03776091
124	0xbe041376	-0.12898049
125	0x3d43134f	0.047625836
126	0x3d04309c	0.03227292
127	0xbbebdbdb	-0.0071978397
128	0x3d11e2ca	0.035616674
129	0x3d178e51	0.037000958
130	0xbdd740c3	-0.10510399
131	0xbd7d7ad4	-0.061884716
132	0x3b83225e	0.0040018996
133	0x3de2e23a	0.110783055
134	0xbdfcabc6	-0.12337451
135	0xbcb7000a	-0.022338886
136	0x3bd1aa34	0.0063984636
137	0xbd05936f	-0.032611307
138	0xbc6f6b65	-0.014613007
139	0xbe32c7b3	-0.17458992
140	0xbda95636	-0.082683966
141	0x3dc56f29	0.09640343
142	0x3e4ddbb3	0.2010334
143	0xbe5e1a51	-0.21689726
144	0xbd83bfa7	-0.06433039
145	0xbe0006a7	-0.12502538
146	0xbda1cb48	-0.07900101
147	0xbf206cc2	-0.6266595
148	0xbc9d41e0	-0.01919645
149	0xbd94ce4b	-0.0726591
150	0x3dbf9f6b	0.093565784
151	0x3dd8de45	0.105892695
152	0x3d6867cd	0.056739617
153	0x3a83c144	0.0010052104
154	0x3d805f44	0.062681705
155	0xbdb1a36e	-0.0867375
156	0xbd90d735	-0.070722975
157	0xbc864ebc	-0.016394965
158	0x3d41354f	0.04716998
159	0xbccbfa20	-0.024899542
160	0xbda4a7a7	-0.0803979
161	0xbd8c6e5d	-0.068569876
162	0x3d321f2b	0.043486755
163	0xbdbf3bb8	-0.09337562
164	0xbdb1fd56	-0.08690898
165	0xbe44dd58	-0.19225061
166	0x3d6a31af	0.05717629
167	0xbd90d4b1	-0.07071818
168	0x3c095879	0.00838291
169	0x3c6cfc44	0.014464442
170	0x3e8add31	0.2712188
171	0x3bf59d7b	0.00749558
172	0x3d114495	0.035465796
173	0xbd61a94e	-0.055093102
174	0x3da277b7	0.0793299
175	0xbe0d25d3	-0.1378396
176	0xbd8aca1b	-0.0677683
177	0x3daa3f30	0.08312833
178	0x3dcd9491	0.100381024
179	0xbd2c69e5	-0.042093176
180	0xbd61dc5c	-0.05514179
181	0xbd83f486	-0.064431235
182	0x3e260f69	0.16216816
183	0xbd82c0fe	-0.063844666
184	0x3c4d5777	0.01253306
185	0x3d4da62c	0.050207302
186	0xbc96dfc5	-0.018417249
187	0xbd96174b	-0.073286615
188	0x3e102e11	0.14080073
189	0xbb93c2d2	-0.0045093084
190	0xbd858990	-0.065203786
191	0xbce993d2	-0.028512869
192	0x3e1aada0	0.15105295
193	0xbd8d5e1c	-0.069027156
194	0xbd90bae3	-0.07066896
195	0x3d841be0	0.06450629
196	0xbdf0cfef	-0.1175841
197	0xbba13086	-0.0049191145
198	0xbd62c44c	-0.055362985
199	0xbda555e5	-0.08073024
200	0x3dc00ad9	0.09377069
201	0xbba29fc3	-0.0049628927
202	0x3c9802d5	0.018556038
203	0x3c61f7d0	0.013791993
204	0x3d0cd83f	0.034385916
205	0xbd3d151e	-0.046162717
206	0x3d1a96e6	0.037741564
207	0x3d3f9aa9	0.046778355
208	0xbc8ef62e	-0.017451372
209	0x3c0bfc30	0.008544013
210	0xbe00d6f1	-0.12581994
211	0xbc56f2d5	-0.013119419
212	0xbeb2b80f	-0.3490605
213	0xbd7a9e81	-0.061186317
214	0x3f26e341	0.6519051
215	0x3da60adc	0.0810754
216	0xbe3614db	-0.17781393
217	0x3ce46f47	0.027885092
218	0xbd98eada	-0.074666694
219	0xbdd19318	-0.10233134
220	0xbd18747c	-0.037220463
221	0xbc9b92cb	-0.018990895
222	0x3cf5ad0e	0.029989745
223	0xbcb47c77	-0.022032006
224	0xbde6aab3	-0.11263027
225	0xbda04daf	-0.07827317
226	0xbdff9d31	-0.12481154
227	0xbc9f91df	-0.019478736
228	0xbdd0ab4e	-0.10188924
229	0xbd68ef2b	-0.056868713
230	0x3d13b500	0.036061287
231	0xbdd6f780	-0.10496426
232	0x3d754c3a	0.05988715
233	0xbdc3f36b	-0.09567913
234	0x3d55b1ee	0.05217164
235	0x3db9ba58	0.090687454
236	0x3d1adac5	0.03780629
237	0x3d34772a	0.044058956
238	0xbd781fa7	-0.06057706
239	0xbcf87e76	-0.030333739
240	0x3dac6007	0.08416753
241	0x3dc7a330	0.097479224
242	0x3cf4eb13	0.029897248
243	0x3e44c673	0.19216327
244	0x3c7b2ad0	0.0153300315
245	0xbdc7f982	-0.09764387
246	0x3d32f0e3	0.04368676
247	0x3cc48a04	0.023991592
248	0xbd9882d0	-0.074468255
249	0x3dd21cd4	0.10259405
250	0x3da1cb89	0.079001494
251	0x3d3a7085	0.045517463
252	0xbdee96d2	-0.116498604
253	0x3ddfc992	0.10927118
254	0xbcef3d4d	-0.029204035
255	0x3d7197fa	0.058982827

fc.bias f4 [68]
0	0xbd3a8dcc	-0.045545384
1	0xbd6000b6	-0.054688178
2	0xbd800830	-0.06251562
3	0x3d457263	0.04820479
4	0xbc43401a	-0.0119171385
5	0xbd5e7076	-0.05430647
6	0x3d4fdba6	0.050746582
7	0x3d93bc85	0.072136916
8	0x3ca74e30	0.020423025
9	0x3d91d507	0.0712071
10	0x3d92ba1b	0.07164403
11	0x3c68d820	0.014211684
12	0x3bf4f280	0.0074751973
13	0xbdd2bca9	-0.1028989
14	0xbdae6e68	-0.08517152
15	0xbd22a8a8	-0.039711624
16	0xbc0dde99	-0.008659028
17	0xbcfec81b	-0.031101277
18	0xbd3ec5c0	-0.046575308
19	0x3dcfb5f1	0.101421244
20	0xbcab132e	-0.020883169
21	0xbce25caa	-0.027632076
22	0xbd876845	-0.06611685
23	0x3cf29625	0.02961261
24	0xbce5949c	-0.028024964
25	0xbc4a62e9	-0.012352684
26	0xbd5473c8	-0.05186823
27	0x3d8b49ec	0.06801209
28	0x3d9de85b	0.07710334
29	0x3d6b2cb6	0.057415687
30	0xbbc5a3d0	-0.006031491
31	0x3dc7970b	0.09745606
32	0x3ded074e	0.11573659
33	0x3de4930a	0.11160858
34	0x3db948a8	0.09047061
35	0x3d39e8a4	0.04538788
36	0x3da581c4	0.080813915
37	0xbd55d529	-0.05220524
38	0xbc9419d9	-0.018078731
39	0x3d436bbd	0.04771017
40	0x3d597690	0.053091586
41	0xbd2fec53	-0.042949986
42	0x3d9a11f1	0.07522953
43	0x3c019944	0.0079100765
44	0xba76bc61	-0.0009412226
45	0xbd4fc626	-0.05072608
46	0xbd26a999	-0.040689085
47	0xbcc4d699	-0.02402811
48	0x3bbe2f4f	0.0058039795
49	0x3d8e8be3	0.06960275
50	0x3c81a004	0.015823372
51	0xbc43c7ca	-0.011949489
52	0xbcdb9441	-0.026804091
53	0xbccb99fd	-0.0248537
54	0x3d035066	0.032059096
55	0x3da5898a	0.08082874
56	0x3d86b647	0.065777354
57	0xbd7151fa	-0.05891607
58	0x3bff735a	0.0077957334
59	0xbcc11fcc	-0.023574732
60	0xbd6c56cc	-0.057699963
61	0xbc54d308	-0.012989767
62	0x3dd09c69	0.10186083
63	0x3d9a8903	0.07545664
64	0x3c36cebb	0.011157687
65	0xbc6c7f9f	-0.014434724
66	0x3d194f35	0.037429053
67	0xbd7b5300	-0.06135845
